sample_models/cifar_weight_2_1e-3.pth (torch_old, 687237 bytes, 12 tensors)

conv1.weight f4 [12, 3, 3, 3]
00000000: d939 88be 588d b1be 0cc3 90be d9cc 0f3e
00000010: a4df 2a3e 9d2d 9f3e c57c 903e dd55 3c3e
00000020: fde4 303e 891f a4be 4c10 a7be 9953 85be
00000030: dbe1 c13d de8d 763d 1bf5 1f3d 644a a43c
00000040: 8d00 c8bd 9248 4fbe 9aeb 25be 84d9 3dbe
00000050: 8152 483d 401a 833e f9b4 873e 7781 e93e
00000060: e96c 863d b40f 2c3d b8da 0b3d 0f6e 97be
00000070: a7c3 98be 8d02 b03e f8ed 03be 69f6 dcbe
00000080: 91c1 b6be 4647 ca3e 94fc 193f 5804 3b3d
00000090: 689c a5bd ab8c 75be 9446 853e bb1b a03d
000000a0: 62ba a8be 0852 55be 7431 be3e 354c c93e
000000b0: f438 e1bd c3e0 17be ddc2 1a3d 36f5 c63e
000000c0: e515 e0bd d69d e1be f363 05be dad4 bf3d
000000d0: 3b10 a33e c333 1bbe 99f1 8b3e 861e 183f
000000e0: 41be 1e3f 6b36 18be 2d3d f9be 6855 0cbe
000000f0: c0ab 2abe bcfa ecbc c3e3 77be d477 4cbe
00000100: e4d0 b33d f9a7 ff3e 8f2a d0be e680 18bf
00000110: 41cb 53be 671a 223e c26f b13c 4cdf 2a3d
00000120: 45e1 c4bb 095b 87bd 27b7 bd3d 9d29 8d3d
00000130: c800 85be 66f9 a0be 1528 dd3e be18 ac3e
00000140: c7e1 a23c d264 ea3e 1346 27bf c35a 3f3d
00000150: 2874 e0be c8e6 57be 1a02 173f 9a21 e53b
00000160: f9f2 0a3f 88a1 a8be 9c02 0d3f 181a f8be
00000170: 25eb f03b 3376 f8be 643b d3bd 1be6 103f
00000180: 6e02 a8bd 5634 0a3f c5a0 d7be 7664 8e3e
00000190: 9a8b d8be b907 093c cd07 c3be 9a61 74be
000001a0: fe7d cb3e 08f2 f4bd 5a23 ff3e 26b8 92bd
000001b0: a72b 6f3d d413 a83d 40e6 54bd 5148 8f3e
000001c0: 047b 0e3e ef63 91be 8060 89bd 4993 d23d
000001d0: dda6 fa3b 9130 713e 94e9 4cbd 3efe bfbe
000001e0: 00db aa3e 2552 1e3e 70ff 24bf 7089 b73d
000001f0: b57a 163e 7040 b5be bc72 a43e ce34 a0bc
00000200: 5c18 c3be 7077 d93e 3b7e 553e 7f31 10bf
00000210: cfc8 103e cbac 2c3e 8a70 41be 0545 3abe
00000220: 1c4f 81be 4576 cfbc e1a7 93be e14b eabd
00000230: 6cf0 1dbd 1c04 4fbe f654 9bbe 571d 4ebe
00000240: f654 0abe d089 15bc 391c 2bbe 5f55 e43d
00000250: 68c0 8e3e 3f1c 9d3c 0c82 aebd 3bfe 1abe
00000260: ad9c 3cbe 3624 a53e 5a4e 9a3e 99a8 37bd
00000270: 3171 113f e2ab e43e 4d8f 853e da9c 8a3d
00000280: f85a 583e a0be 32be 35a4 3fbe 988a 783e
00000290: c2fe 573e 435e a1be c61d a93e b567 6d3d
000002a0: 25a9 a0be 603d 293e 7a9e a03d ddd9 fcbe
000002b0: dabf e03d 8c30 f5ba ba48 13bf 8e11 463e
000002c0: 6227 193e 1133 c8be cee0 5a3e 4605 893d
000002d0: 251c 6cbe b370 9b3e 8b86 cc3c ce0f e5be
000002e0: 10b1 d33e 565c b13d 99d6 72be 11d7 bd3e
000002f0: 880f 373d 2880 4dbe 8e06 2d3c b6f4 b03d
00000300: bba9 5ebe e371 3bbd 73ef 743e 5ef9 4dbd
00000310: 64f1 28be 24f7 473e 5907 c3bd 6d23 223e
00000320: 7c6d 323e 1d98 1bbe 16e9 db3c ed9f 5d3e
00000330: b89f 913d 1cc0 39be 996f 0c3e 02d6 903d
00000340: e14c a13e 3863 923e 2d5e 95bc 057a 0d3e
00000350: 7c6f 883e 933f 61bd e80f b5bd 8ca1 893c
00000360: e60f e83c 93a5 7f3e 5ff0 1c3d 71f6 083f
00000370: d53f 1f3f dde9 2b3e 6896 1d3e 4746 443d
00000380: 1ee7 a8be e0b2 4cbe 0df6 98be 9038 32be
00000390: 7c2f 4dbe 3d9e a2be 828d 78be ce0b 7dbd
000003a0: 22fd abbd a7cd 253d 6d21 153e 2234 dd3c
000003b0: 286d c73d 2fbf ddbe b1ac abbe 2064 35bd
000003c0: c660 77bd 953e 2f3e d266 d93e e0da 69be
000003d0: f4d9 123f 5e64 1bbf 7591 b7be c72c e93e
000003e0: 4a8a acbd b2ff b8bd b0db bc3d 2c6f adbd
000003f0: ddec 5abe 5d09 533f 7e8e b6be da23 06bf
-0.26606634 -0.3467815 -0.2827381 0.14042987 0.16686875 0.31089488 0.28220192 0.18392129
0.17274852 -0.3205531 -0.3262962 -0.26040342 0.09466907 0.06019389 0.03905211 0.020055003
-0.0976573 -0.20242527 -0.16203156 -0.18540007 0.048906807 0.25605965 0.2650526 0.45606586
0.06563742 0.042007163 0.034144133 -0.29576156 -0.2983677 0.34376946 -0.12883747 -0.43156746
-0.35694554 0.39507502 0.6015103 0.04565844 -0.08086473 -0.23979442 0.2603041 0.07817789
-0.329547 -0.20832074 0.37147105 0.39315954 -0.10997191 -0.14831834 0.037783492 0.38858956
-0.10941676 -0.44065732 -0.13026409 0.0936677 0.3184832 -0.15156464 0.27332762 0.59421575
0.62009054 -0.14864509 -0.48679486 -0.13704455 -0.1666708 -0.028928153 -0.24207978 -0.19967586
0.08780077 0.4993284 -0.4065747 -0.59571683 -0.20683004 0.15830384 0.021659736 0.04171686
-0.0060082995 -0.066091605 0.09263449 0.06892703 -0.2597716 -0.31440276 0.43194643 0.33612627
0.01988305 0.45780045 -0.653413 0.046717416 -0.4383862 -0.2108413 0.5898758 0.006992531
0.54276997 -0.3293574 0.55082107 -0.48457408 0.00735225 -0.4852768 -0.10314062 0.56601113
-0.082035884 0.5398611 -0.42114845 0.2781102 -0.42294008 0.008363658 -0.3809189 -0.23865357
0.39744562 -0.11960226 0.4983166 -0.0716403 0.05839124 0.08206907 -0.051977396 0.2798486
0.13914114 -0.28396556 -0.06707859 0.10281999 0.007649286 0.23553683 -0.050027445 -0.3749866
0.3337021 0.15461023 -0.64452267 0.08961761 0.14695247 -0.35400724 0.32118785 -0.01955643
-0.38104522 0.42473936 0.20848934 -0.56325525 0.14139102 0.1686279 -0.18890586 -0.18190391
-0.25255668 -0.02532495 -0.2883902 -0.11440254 -0.038559362 -0.20216411 -0.30338258 -0.2012838
-0.13508973 -0.009127095 -0.16709985 0.11149096 0.2788117 0.019178508 -0.08520898 -0.15136044
-0.18419142 0.3225419 0.30137902 -0.04483852 0.5681334 0.44662386 0.26085892 0.06768198
0.21128452 -0.1745553 -0.18714984 0.2427162 0.21093276 -0.31517228 0.33030528 0.05796023
-0.31379047 0.16527319 0.07842727 -0.49384966 0.10974093 -0.0018706485 -0.57532847 0.19342634
0.1495643 -0.3910146 0.21374819 0.06690459 -0.23057611 0.3035942 0.024966499 -0.4473862
0.41346025 0.0866019 -0.23714675 0.37078145 0.044692546 -0.20068419 0.010560645 0.08640425
-0.21744435 -0.045762908 0.23919468 -0.050286643 -0.16498333 0.1952787 -0.09522886 0.15833826
0.17424577 -0.15194745 0.026844542 0.21643038 0.07110542 -0.1813969 0.13714446 0.07072069
0.31503966 0.28591323 -0.018233383 0.13816078 0.26647556 -0.05499227 -0.088409245 0.016800664
0.028327893 0.24965505 0.038315173 0.5350104 0.62206775 0.1678843 0.15389407 0.047918584
-0.32988828 -0.1999011 -0.29875222 -0.1740439 -0.20037645 -0.3176135 -0.24272731 -0.061778836
-0.083978906 0.04047933 0.14563532 0.027002398 0.09737617 -0.43309924 -0.3353019 -0.04428494
-0.060395025 0.17113717 0.42461258 -0.228374 0.5736382 -0.60700023 -0.35853162 0.45541975
-0.08424814 -0.09033145 0.092215896 -0.0846847 -0.21379419 0.8243616 -0.35655588 -0.52398455

conv1.bias f4 [12]
00000000: 6945 69be 2288 abbd a062 f2bd bba5 a5bd
00000010: 2a53 6ebd b8a9 0f3e 249d 10bd 9b19 c9be
00000020: 028c 6bbe 1e19 7bbd 1a8d e4be 3ffa 00be
-0.22780384 -0.08375575 -0.118352175 -0.08088251 -0.05818478 0.14029586 -0.03530611 -0.39277348
-0.23002627 -0.06130325 -0.44638902 -0.12595461

conv2.weight f4 [32, 12, 3, 3]
00000000: 93c7 0480 9971 0380 773d 0380 5619 0380
00000010: f3a1 0280 b3a6 0000 5703 0080 0eb0 0100
00000020: fc4e 0100 189f 0180 706b 0180 9b6f 0080
00000030: 0c41 0100 e009 0180 3882 0180 f790 0400
00000040: c3d8 0500 6a40 0300 3255 0200 6e87 0000
00000050: fd17 0500 840b 0180 9790 0000 1c6b 0200
00000060: e29f 0280 02bb 0180 995a 0200 f649 0100
00000070: 9cd4 0280 f319 0180 e49e 0280 c3c6 0000
00000080: 9a3e 0100 985a 0480 bd31 0300 f496 0100
00000090: 4ad7 0080 8260 0180 c9be 0080 4ef6 0080
000000a0: 32b3 0180 2575 0180 aaec 0080 2f00 0280
000000b0: f23a 0180 82a9 6525 ac54 0b26 d1c9 eca6
000000c0: 1c30 a027 160a 0b28 9933 ca28 dc9f 1f28
000000d0: 87a0 1828 60ab b1a3 4ee9 e78a 0e6a 0180
000000e0: 5bbd 0000 36e5 8889 5be5 0000 092e 0200
000000f0: 9a43 6b86 8560 0180 62c9 0100 4d15 0280
00000100: f2e1 0180 5603 0280 1e64 d901 ff6f 0280
00000110: 7714 0280 bc75 0a80 2976 0180 61e6 0180
00000120: 8a5b 0300 95a5 0200 fb7c 0300 c0fd 0300
00000130: 4044 0580 26d5 0380 4ece 0400 9818 0100
00000140: b3eb 0200 c1e3 0000 99e8 0580 275e 0300
00000150: 5bef 0200 bbfe 0080 69aa 0200 83f5 0100
00000160: 99d0 0480 3b68 0600 9618 0580 9a1f 0080
00000170: 5def 0200 7a11 0100 254f 0180 99be 0080
00000180: c542 0180 de75 0300 bf5f 0280 c85b 0280
00000190: 8224 0280 cc0a 0180 2b08 0180 6afc 0080
000001a0: d2b5 0180 2c2c 0280 6762 0180 82fe 0080
000001b0: 4175 60bd 576b 8fbd 1a4f 8fbd f843 5a3d
000001c0: 6a8d 3c3d bbcb a03d 2969 7d3d e647 8d3d
000001d0: b867 053e accc 703d 3f10 203d 8113 e73c
000001e0: bcb6 fc3d 49c1 973d f550 3e3d fef7 d23d
000001f0: 03cc 22bd 0884 a7bc 9228 cabc 748c 623a
00000200: e79f 9cbd bef3 ce3b e26d a7bc 64da 5dbb
00000210: 6b64 363e 43e3 8c3d 05dc 4f3c 4144 063d
00000220: 64bd bcbd d95b 793d 85fd 7ebd 7f64 523d
00000230: 1fd4 eb3d e472 03bb 4691 3ebd a89f 5c3e
00000240: cf7b 84be 44ad 93be 1654 66be ffd4 69be
00000250: a7aa 5dbe d750 7bbe 08ed a83d ebc8 71be
00000260: 5e39 95be baee c7bd 3f36 7bbd 4e88 98bd
00000270: 4b04 7cbe f44f 88be 994b 8fbe 9ba6 d6bd
00000280: bbe5 d0bd 719e b0bd 7f71 63be 85f4 57be
00000290: 9b68 aebe e036 a7be 9932 97be 458c 92be
000002a0: 55f7 8abe aba5 8cbe 5df1 91bd 5787 d8bd
000002b0: 69e0 0fbd f34d 31bd ebbf 35bd 4464 44bd
000002c0: 11fb 43bd e50c de3c 9ce3 653c d871 c93c
000002d0: 98c1 92bd a20b 39bd 3fb5 d8bb f4d5 b6bc
000002e0: 046a a8bc 655c 133d e289 37bd 3f4d dfbd
000002f0: 8359 f3bc 1420 433d b314 81bc 1c29 07bd
00000300: 1ebb 533d 7a08 91bd 186e f8bd 1478 18bd
00000310: 28cc f4bd 2d95 3cbe 54f8 9cbd ec48 57bd
00000320: f739 d4bc 687a b0bd 6fe3 f0bc a6b9 943c
00000330: d45f a93c e992 0c3d f701 22bd 1d5b 18bd
00000340: 3787 7e3c ba8d c73c 17d4 0c3e 7812 003e
00000350: 5539 7d3d 4751 553e f107 893d 9cd2 f0bc
00000360: 8f7e 4bb6 7d33 8cb6 6f0f e0b6 06f7 a204
00000370: b99c 6285 7e92 2c85 6443 0e05 72b4 1d05
00000380: 5213 7405 60ab 2e04 26e7 db04 1631 0404
00000390: 70e0 8f85 d640 0585 1234 6805 2b3f 5a05
000003a0: 86ba 2e03 4fbf 5685 24d6 3304 d05f b884
000003b0: 4474 ba83 10bd e783 751a 2f85 c14e 7985
000003c0: 51b5 bb05 ec80 4d84 108c a105 6d21 d205
000003d0: 2a38 ee87 9b2c 4b8f 2801 4985 9b75 9404
000003e0: 30fa f004 c99a 7e85 0091 4f03 a64b a705
000003f0: 52da af91 30f6 8310 f807 2c0b 37a0 f58e
-4.38936e-40 -3.16258e-40 -2.97556e-40 -2.84595e-40 -2.41767e-40 5.98e-41 -1.198e-42 1.54992e-40
1.2017e-40 -1.48908e-40 -1.30377e-40 -4.0036e-41 1.1517e-40 -9.5378e-41 -1.38549e-40 4.19346e-40
5.36937e-40 2.98614e-40 2.14233e-40 4.8583e-41 4.67783e-40 -9.5967e-41 5.1869e-41 2.22095e-40
-2.41026e-40 -1.58921e-40 2.16171e-40 1.18368e-40 -2.59941e-40 -1.01144e-40 -2.4067e-40 7.1302e-41
1.14293e-40 -3.99841e-40 2.93349e-40 1.45987e-40 -7.7231e-41 -1.26456e-40 -6.8441e-41 -8.8357e-41
-1.56119e-40 -1.33859e-40 -8.4899e-41 -1.83737e-40 -1.12981e-40 1.9920015e-16 4.8340064e-16 -1.6430492e-15
4.446108e-15 7.718237e-15 2.2448882e-14 8.860937e-15 8.472504e-15 -1.9262959e-17 -2.233225e-32 -1.29881e-40
6.7928e-41 -3.2956358e-33 8.2277e-41 2.00185e-40 -4.4248253e-35 -1.2646e-40 1.64078e-40 -1.91312e-40
-1.7289e-40 -1.84868e-40 7.985687e-38 -2.23848e-40 -1.91012e-40 -9.6059e-40 -1.34223e-40 -1.7448e-40
3.08345e-40 2.4307e-40 3.20341e-40 3.66535e-40 -4.83661e-40 -3.5197e-40 4.4135e-40 1.00658e-40
2.68224e-40 8.1703e-41 -5.42618e-40 3.09282e-40 2.69536e-40 -9.138e-41 2.44803e-40 1.79909e-40
-4.42173e-40 5.88404e-40 -4.67997e-40 -1.1337e-41 2.69538e-40 9.8105e-41 -1.20227e-40 -6.8374e-41
-1.15788e-40 3.17789e-40 -2.18018e-40 -2.16596e-40 -1.96768e-40 -9.5709e-41 -9.4766e-41 -9.0549e-41
-1.5706e-40 -1.99517e-40 -1.27136e-40 -9.13e-41 -0.054799322 -0.07002895 -0.06997509 0.053287476
0.0460333 0.078513585 0.061867867 0.06898479 0.13027847 0.05878894 0.039077993 0.028207542
0.12339541 0.07409913 0.046463925 0.10301207 -0.039745342 -0.0204487 -0.024677549 0.0008642145
-0.076476865 0.0063156774 -0.020438138 -0.0033852095 0.17811744 0.06879284 0.012686734 0.032779936
-0.09215811 0.06087861 -0.062253494 0.05136537 0.11515068 -0.0020057494 -0.046525262 0.21545279
-0.25875708 -0.2884313 -0.22493014 -0.22835158 -0.2164713 -0.24542557 0.08248335 -0.236118
-0.2914533 -0.0976233 -0.06133103 -0.07447873 -0.24611013 -0.266235 -0.27987364 -0.10480996
-0.102000676 -0.0862397 -0.22211264 -0.2108937 -0.34064183 -0.32659054 -0.2953079 -0.28622642
-0.27141824 -0.27470145 -0.071261145 -0.10572689 -0.035126124 -0.04328723 -0.04437248 -0.047947183
-0.047846857 0.027105758 0.014031317 0.024590418 -0.07165831 -0.04517711 -0.006613403 -0.022318818
-0.020558365 0.035976786 -0.04480923 -0.109034054 -0.029705768 0.047638014 -0.01575694 -0.03299819
0.05169212 -0.07081695 -0.12130374 -0.03722389 -0.11953002 -0.18416281 -0.07664552 -0.052559778
-0.025906546 -0.08617097 -0.029405324 0.01815493 0.020675577 0.034319792 -0.039552655 -0.037196267
0.015535167 0.024359573 0.13752781 0.12507045 0.061822254 0.20831786 0.06690968 -0.029397301
-3.0323024e-06 -4.178319e-06 -6.677517e-06 3.8312872e-36 -1.0655254e-35 -8.1143075e-36 6.6891856e-36 7.415247e-36
1.14763734e-35 2.0532293e-36 5.169893e-36 1.5539065e-36 -1.35301e-35 -6.2655384e-36 1.09181514e-35 1.0261913e-35
5.1348123e-37 -1.00973695e-35 2.1139677e-36 -4.3346182e-36 -1.0958791e-36 -1.3620366e-36 -8.23332e-36 -1.17223885e-35
1.7652e-35 -2.4156832e-36 1.5191818e-35 1.9760584e-35 -3.584327e-34 -1.00172634e-29 -9.451187e-36 3.4902636e-36
5.665349e-36 -1.1971452e-35 6.0998284e-37 1.5732393e-35 -2.7744682e-28 5.20497e-29 3.313199e-32 -6.0551444e-30

conv2.bias f4 [32]
00000000: 9620 1aad c4e7 cb3e cbf7 b2b6 cb8a b33e
00000010: 366e b73e 63cb 50bc d402 8cbe 160c b89e
00000020: 2c57 39be 89fe c63d 3ca9 5c3e acf3 993d
00000030: bdad 243e b1d3 9ebe 66a4 3fbe 8cec e6bb
00000040: 9d94 f9bc 0a76 32bd 8e15 afba bb91 5dba
00000050: a0e0 40bd 4181 e4bb dfb1 333e 051d ccbd
00000060: e4fa 663d 13bc 92bc 9b21 c13e 2eb0 a3be
00000070: f25d 2dbe 7961 14be 694b 0a3e 5284 5fbe
-8.761122e-12 0.3982526 -5.3336603e-06 0.35066828 0.35826272 -0.012743804 -0.27345908 -1.9486756e-20
-0.1809966 0.097165175 0.21548933 0.0751718 0.16081901 -0.31020883 -0.18715057 -0.0070472416
-0.030466372 -0.043569602 -0.0013357864 -0.00084521965 -0.04708922 -0.006973416 0.17548321 -0.099664725
0.05639161 -0.017911946 0.3772095 -0.31970352 -0.16930369 -0.14490308 0.13505329 -0.2182782

conv3.weight f4 [64, 32, 3, 3]
00000000: 720d 0280 1912 0280 c632 0280 04ec 0180
00000010: 111c 0280 2152 0280 d2af 0180 2e9e 0180
00000020: 15e8 0180 38e6 d8bb 55fd ae3c c1cb 38bc
00000030: bfa6 adbd 1bff c43d 7e6f fb3c ee7b eebd
00000040: a5ef 58bd 6caf 363d cc1b be04 3e4c 5805
00000050: f44b 8604 90e5 9c05 5c81 0784 4bdf 2404
00000060: 9de5 9104 7877 2505 c5b5 7103 1de6 753e
00000070: 43a8 0b3d 3230 853b 1104 8c3d fa54 833e
00000080: fd54 2c3d d8c5 c7bd 2ab1 6d3d e432 8e3e
00000090: 92b7 8bbd fa9f c63d 7704 353e 066d ddbd
000000a0: e781 e73d 8bf9 5f3e 476d e9bc a80f cabc
000000b0: 10be 113e 1455 4c3a a4df 6b3a 89ce 9338
000000c0: 8ade a339 c461 e538 091d 8937 d24a 0339
000000d0: be22 0a38 005f bb36 5e8b 9dbe 0743 a6bd
000000e0: b694 62be 4732 26be 06c9 eabe e1fc b4be
000000f0: 96a9 263e 3466 aebe d553 e5be a06a 0180
00000100: 1da3 0180 5664 0180 83a1 0280 5dd0 0200
00000110: ccf3 0280 b996 0280 a83a 0200 b190 0380
00000120: a94f 583d f514 86bd f40a 663d c123 133f
00000130: 25ae 1bbd fe1e 8abe a363 823e 1fdd 613e
00000140: 0d74 e9bd 99b6 f13c 0bad c5bd a8a6 4b3b
00000150: 54c2 2a3e 56dd 6b3e 7448 f03d 2231 3a3d
00000160: fe0e 533e 7d84 2d3e 4ab1 9b3d c7af 873d
00000170: b40c 4a3d c539 6abe f009 4dbc 4f38 df3d
00000180: e9f5 5a3b c2b2 e7bd e20f c7bc d733 b3bd
00000190: 2a79 67bd f87c 143d e679 33be 1226 56be
000001a0: f612 a6bd 03d5 533c 7ea5 34be 32d9 23be
000001b0: 924e acbc f8f9 b1bd bac2 ce3d 5b1a 7ebe
000001c0: 5e85 1bbe 9ad4 0d3e ded3 2bbe 01ff 34be
000001d0: ed5e 6c3d 25f9 703d 1125 0bbe 08ef 9abd
000001e0: 8c60 d33d da1d 443c be80 1abe 5869 963e
000001f0: cdbf 563e b3bb b1bd 04eb 0fbd a762 183e
00000200: 3556 363e 21cd 68bd 26e4 873e abf2 0f3e
00000210: 1d14 ccbd 0dfd 86ba ed56 a73d 7d07 46bb
00000220: e6de f3ba 522a 6aba d301 08bc e208 57bb
00000230: 18ad a7ba db53 b3bc 002c 37bc 33c7 9bbb
00000240: 3b42 db3b 0ab9 073b 0428 533b bc2f 443c
00000250: 07a6 c23b 0f56 913b 1c5f 1b3b fda5 d4b9
00000260: 2e3b 703a c12b 763c b20d bb3c 69fd ed3c
00000270: 5683 c83b 7ca6 7f3c 0cb2 cb3c f1d6 8f3b
00000280: 8f58 f63b aadb 783c 280d 84a8 09bf eb2d
00000290: 0544 8aae 358d 72a1 056c 0ab1 9c24 faaf
000002a0: 8964 880f 4efc 511d ea6f fa99 c0b6 ca28
000002b0: 71e5 ef1d 713b f726 ce02 8133 de7b 2133
000002c0: 3609 f82f 8bf0 40b2 5cb0 0f34 b152 0332
000002d0: c6a2 733c 22b2 97bd d024 c53d 048f 2c3e
000002e0: fc88 29bc d7d8 d03d 1740 e13d d70e ab3d
000002f0: 185f 5fbd e3ce ee33 3e22 7c32 a7e4 8533
00000300: 2bf0 b4b7 5ab8 f535 4f0a c234 1609 31b8
00000310: 9c0c 21b8 5b6b 6fb6 951f 7fbe 8dc5 bdbd
00000320: df91 edbd 1206 4abd aa5b 62be 74fe 49bd
00000330: d845 193d 0968 f6bd d730 80bd 9739 07bd
00000340: a891 953d e0e7 e4bd 91d9 54be 45f5 edbd
00000350: 320d 70bb 4f6d 96bc 940e 01be 0b9f 6cbd
00000360: ae94 893d 765a 993c fc21 e8bd f8d2 a13e
00000370: e78c 883e 9f0c ed3d b4dd fe3d 0343 463e
00000380: 0947 6c3d dd28 f7b6 eaa9 b037 6588 e1b7
00000390: 9052 a1b8 eead 45b8 2607 93b7 16ed 7738
000003a0: 4902 0ab9 2eab 28b8 0466 323c a265 463d
000003b0: aacd 6f3e 24c0 60be 36a0 09be cf32 233e
000003c0: 0552 2fbe 4bd2 8abe 7f07 f33d bf1c 1f3e
000003d0: 5af2 db3d ff8b ca3d 6ee9 7c3e ae10 3b3c
000003e0: e404 94bd a6ac 5cbd dfb8 75be f0e2 67be
000003f0: de81 073e 4967 403c 3d4d d63d 7497 5bbe
-1.88494e-40 -1.90163e-40 -2.01885e-40 -1.76502e-40 -1.9374e-40 -2.13133e-40 -1.54908e-40 -1.4858e-40
-1.75091e-40 -0.006619241 0.021361033 -0.0112790475 -0.0847907 0.0961897 0.030692812 -0.116447315
-0.052962918 0.04460089 4.4694313e-36 1.0170275e-35 3.1573e-36 1.4754497e-35 -1.5928573e-36 1.9380638e-36
3.4300203e-36 7.780206e-36 7.1032196e-37 0.24013563 0.034096014 0.004064583 0.06836713 0.2565077
0.04207324 -0.097545326 0.058030285 0.277732 -0.06822123 0.09698482 0.17677484 -0.1081181
0.11304074 0.21872537 -0.02849449 -0.024665669 0.1423266 0.000779466 0.00089978636 7.0479764e-05
0.00031255587 0.00010937781 1.6345193e-05 0.00012521006 3.293412e-05 5.5840937e-06 -0.3077039 -0.08118253
-0.22127041 -0.16230117 -0.45856494 -0.3534918 0.1627563 -0.3406235 -0.4479052 -1.30085e-40
-1.5035e-40 -1.27829e-40 -2.4161e-40 2.58418e-40 -2.71129e-40 -2.3774e-40 2.04713e-40 -3.27412e-40
0.052810345 -0.06546966 0.05616279 0.5747643 -0.038007874 -0.2697677 0.25466642 0.22057007
-0.11399088 0.029506015 -0.09652146 0.0031074677 0.16675693 0.23033652 0.11732569 0.045457013
0.20611188 0.16945072 0.076021746 0.06625324 0.04932852 -0.228736 -0.012514576 0.10899412
0.0033410734 -0.11313392 -0.024299566 -0.08750122 -0.056512035 0.036251992 -0.1752697 -0.2091296
-0.08109085 0.012929204 -0.17641255 -0.16000822 -0.021033559 -0.08690256 0.10095735 -0.24814741
-0.15187594 0.13850632 -0.1678004 -0.17675401 0.057707716 0.058831353 -0.13588358 -0.07565123
0.10321149 0.011970008 -0.15088174 0.29377246 0.20971604 -0.08678379 -0.035136238 0.14881383
0.17806323 -0.05683625 0.2654125 0.14057414 -0.09964774 -0.0010298804 0.08170877 -0.0030216866
-0.0018605858 -0.0008932698 -0.008301216 -0.003281169 -0.0012792675 -0.021890571 -0.011179924 -0.004753971
0.006691245 0.0020709657 0.0032219896 0.011974271 0.005940202 0.004435308 0.0023707813 -0.00040559462
0.0009164092 0.01502508 0.022833679 0.0290515 0.006119172 0.015603658 0.024865173 0.0043896367
0.007517881 0.015189091 -1.466065e-14 2.6801244e-11 -6.287596e-11 -8.2179675e-19 -2.0143045e-09 -4.5500748e-10
1.344936e-29 2.7791358e-21 -2.5894596e-23 2.250576e-14 6.350001e-21 1.715518e-15 6.007541e-08 3.759839e-08
4.5117482e-10 -1.1230564e-08 1.3382072e-07 7.644005e-09 0.014870351 -0.07407023 0.09626162 0.16851431
-0.010347601 0.10197609 0.10998552 0.0835244 -0.054534048 1.1120371e-07 1.4676116e-08 6.234887e-08
-2.1569509e-05 1.8307576e-06 3.6142816e-07 -4.220855e-05 -3.8397135e-05 -3.5676264e-06 -0.24914391 -0.092661954
-0.11600088 -0.049322195 -0.2210528 -0.04931493 0.037420124 -0.12031562 -0.062593155 -0.033013906
0.07303172 -0.11177039 -0.2078612 -0.11619047 -0.0036628959 -0.01836267 -0.12603217 -0.057768863
0.067178115 0.018719893 -0.11334607 0.3160627 0.2667 0.11574673 0.1244463 0.193615
0.057684932 -7.3659307e-06 2.1059957e-05 -2.6885604e-05 -7.692457e-05 -4.7130445e-05 -1.7527094e-05 5.9110193e-05
-0.00013161557 -4.0213745e-05 0.01088858 0.04843677 0.23418298 -0.21948296 -0.13440022 0.1593735
-0.17121132 -0.27113566 0.11866664 0.1553831 0.10739584 0.098899834 0.24698421 0.011417551
-0.07227495 -0.053875588 -0.23996304 -0.22645164 0.13233134 0.011743375 0.10463951 -0.21444494

conv3.bias f4 [64]
00000000: 95f9 65be 7f90 b6ba 216b d8b2 bb04 533f
00000010: 892c 623e 2c23 d9b4 e087 adbd 6988 8abc
00000020: c77f eeb2 2d57 bdbb 13a0 5e3e e1f7 1cbe
00000030: 1773 ec3d 4981 aca8 9998 a7bc 79f5 2c3f
00000040: 51ad 20be b36a 3cbc 67a4 f0bb e430 19b6
00000050: 14ea a83e c5d5 debb 8380 78be 8721 a5be
00000060: f6af fbb9 a19f a0bc ad2c cfba 7f4b 13a0
00000070: 3c78 6ebe 96ae a1bc a565 2fa5 af54 3bbd
00000080: 36fd 9c3e b88e 51b4 7fbd e1a3 8002 a2be
00000090: cd82 d53d 82d6 69be aa3f d3bc d1a6 5e3f
000000a0: f20a 64b9 00bd 6e3e 524c a03d 7c0b 6ebb
000000b0: 553f b1b6 0e42 ffbc 3aa2 8bbe 9f0d 973e
000000c0: 1f32 593d ac26 2bbe 2f5c 53bd e81c 1bb4
000000d0: 15e5 60b7 7620 a1bc f324 5fbc cfc9 84be
000000e0: bbc9 b33e 333a 22b9 3496 e5ba f2f1 5bb8
000000f0: 9c63 b63e f3de 3fbe 417f 63bb 6161 4f3e
-0.22458489 -0.0013928561 -2.5194426e-08 0.82429093 0.22087301 -4.044499e-07 -0.08473182 -0.016910749
-2.7764953e-08 -0.0057782144 0.21740751 -0.15328933 0.11545389 -1.9151905e-14 -0.020458506 0.6756206
-0.15691115 -0.011500048 -0.007343817 -2.2827235e-06 0.32991087 -0.0068003857 -0.24267773 -0.32252142
-0.00048005552 -0.019607367 -0.0015806161 -1.2476364e-19 -0.23288053 -0.01973657 -1.5213269e-16 -0.045735057
0.30661935 -1.9516563e-07 -2.4474804e-17 -0.31642532 0.10425339 -0.22835734 -0.025787193 0.8697329
-0.00021747852 0.23314285 0.07827057 -0.0036322763 -5.282384e-06 -0.031159427 -0.27272207 0.2950258
0.053026315 -0.16713971 -0.051601585 -1.4446016e-07 -1.3404778e-05 -0.019668799 -0.013619649 -0.25935218
0.35114846 -0.00015471205 -0.0017516077 -5.2438998e-05 0.3562287 -0.18737392 -0.00347133 0.20251991

fc1.weight f4 [128, 1024]
00000000: 0cac 1dbd 0517 82bc 339c 3e3c 1a30 fd3c
00000010: 7046 cbb5 5f11 99bc 810a 84bc 9f0a bf3c
00000020: 2ec8 c7b7 3b0b 153a 24e2 96ba 20a2 e6bb
00000030: e6fe 2d39 1e59 8d3b 378c 593c dca7 daba
00000040: d0c3 9432 c0f9 8ab1 94e7 2637 3ec6 692c
00000050: 3357 2b36 9049 0780 e5da b6b6 c0d1 da2f
00000060: 0c2c 87aa 5623 4dab f25a 42a9 48a3 3131
00000070: 795a 80b6 de3b 3c2b 2046 0d2d 9bbb 0bb1
00000080: 3d87 8fb2 90e8 f02a 4355 0180 b8a5 1434
00000090: 6f06 0180 58bc 0100 e1a6 0600 4a13 0080
000000a0: 40af 0580 b77f 0300 b5b4 0600 9e04 0280
000000b0: 4019 0680 5e01 0100 0998 0580 49c9 0680
000000c0: 74a9 243b 9f1a 86bc ea5a bcbc 18ba 3cbc
000000d0: 0772 0f3b ce73 9bb9 e0e7 d133 109b 7dbc
000000e0: 0e4f 9cba 15dd 4a3a 7646 353b fca5 c1ba
000000f0: a7ac 32bc 0b2a 29ba 5a1a bb39 316f a9bc
00000100: d917 2039 f753 213c 9b5e 31bb 0cdd 2abc
00000110: fdb1 2ebc 3b1f 08bc 8a8e 84b9 f925 61b9
00000120: 054c 01bc 5734 f53b cdb4 9bb9 5aad d0bb
00000130: c487 3dbc f0b1 0ebc 1148 42bb 6d45 94bb
00000140: 14bf 0200 c580 0200 bbf0 0280 d804 0380
00000150: be24 0180 22d9 0080 3eba adb4 dd42 0380
00000160: bcdb dfa8 cd9f 2ea9 ea8b 8f37 1354 0000
00000170: dab7 06aa 8664 0e2c a399 0200 2045 0000
00000180: c6aa 523c fd18 863c 9aaa 313c 366d 833b
00000190: 5f8e 973c d01f a7bc cb88 193d 1a93 2e3d
000001a0: f3b8 0f3c 9b08 1bbc f745 593c 55d1 363d
000001b0: 5548 5f3c f2b7 c3bb d60c 33bd 578f 4f3c
000001c0: 6f14 0780 b73c 0180 5a56 0580 a7fc 0400
000001d0: ad21 0680 cfc6 0600 2014 0000 b2eb 0480
000001e0: 8144 0680 f307 0300 9ad6 56b3 8269 0000
000001f0: a4d6 0580 666e 0080 61dc 0580 bf52 0280
00000200: 7c2b 112f 006f d0b8 d871 a02a 2ea9 05ac
00000210: 684b 47a9 d1ac 0000 be51 6436 70cd 52b2
00000220: 776d 5a2b 6602 88a9 e8ff 0932 92c7 84ab
00000230: b13e 7033 25bc 5b31 143a c036 a078 b029
00000240: c368 97bb 04d6 583c 4389 723b 7477 d5bb
00000250: 509b bcbc 0a6c 02ba d765 2c3d d884 42bb
00000260: ac38 75bc 6ff1 8fbc 7430 f53c 57b7 033c
00000270: 2af8 d93c 9369 fc3c 1270 5e3c f1a8 253c
00000280: 5650 9f3c 9dea acbb daf9 00bb 30f5 a93c
00000290: 61f3 2c3a 25be 973c aebb 3b3b 5a8c 343b
000002a0: 991e 96bb a492 16bc 64ea b2bb 8da3 823b
000002b0: a61c 38ba 7a7d e6bc 5904 c8bb 6dc3 2cbc
000002c0: 33ac f43a 4b3f b7bc 62f4 9bbb 4ea6 e3bc
000002d0: 4e09 62bc 5f7b fdbb db07 9ebb 1f4e dfbc
000002e0: 2c5e 823b bd67 89bc 577e f7ba fb3f adbc
000002f0: 042b 8ab9 fbf2 34bd 04fe e6bc bc77 63bc
00000300: e8e8 1fbd 0514 cc3b 9ffd b2bc b7f4 0cbc
00000310: 4371 09bd 7d57 e3bb b6f8 9abc 1d12 00bd
00000320: 7dfc b3bb ead6 19bc ab2b d23c b51d d4b9
00000330: 9ad1 693c 5607 0a3b 31ce 893c e0d3 dbbb
00000340: 5eec e527 dbc2 74b2 bc3f 9c38 1cfe 38b2
00000350: 5882 85ab d424 bf30 68a4 8bb8 9e27 0927
00000360: 01bb 79aa 4c1e c4b5 628f 882f 48e8 95af
00000370: aa0a 8537 610b c827 f4fd 1b2b d25a 4b2f
00000380: af61 0200 a9fd 0000 c1b2 0200 96c3 0280
00000390: d252 0080 c9a1 0100 1c4e 0580 ff70 0500
000003a0: 7c14 0780 29de 0600 216f 0400 2b99 0680
000003b0: 7be0 0100 89c4 0280 4822 0280 51c3 0300
000003c0: 6a35 11bc e467 8fbc d917 a5bc 96c4 3dbc
000003d0: ae48 c6bc f978 0dbd 241d 8abc 57a7 00bc
000003e0: 7b9b 98bc 2dbe 40bc 1e69 64bc f94c 0d3c
000003f0: 2d5a 30bc 43e1 d4bc 5971 e5bc 3b18 91ba
-0.038494155 -0.015880117 0.0116339205 0.030906726 -1.5145179e-06 -0.018685041 -0.01611829 0.023320494
-2.3815865e-05 0.00056855724 -0.0011511487 -0.00703837 0.00016593523 0.004313602 0.013278059 -0.0016682106
1.7318513e-08 -4.044722e-09 9.9482895e-06 3.3221338e-12 2.5531742e-06 -6.69238e-40 -5.4495054e-06 3.9803005e-10
-2.401138e-13 -7.287967e-13 -4.3155536e-14 2.5849705e-09 -3.8252297e-06 6.68741e-13 8.030493e-12 -2.0333804e-09
-1.670889e-08 4.2793937e-13 -1.22422e-40 1.3843862e-07 -9.4143e-41 1.594e-40 6.10878e-40 -6.92e-42
-5.22045e-40 3.21322e-40 6.15838e-40 -1.85327e-40 -5.60071e-40 9.2326e-41 -5.13717e-40 -6.2322e-40
0.0025125416 -0.016370116 -0.02299257 -0.011518978 0.0021888034 -0.00029650185 9.774499e-08 -0.015478864
-0.0011925416 0.0007738632 0.0027660406 -0.0014774199 -0.010905421 -0.0006453103 0.00035687053 -0.020682903
0.00015267673 0.009846679 -0.0027064446 -0.010428678 -0.010662553 -0.008308227 -0.00025283202 -0.00021471818
-0.00789166 0.007483046 -0.0002969861 -0.0063683214 -0.011568014 -0.008709416 -0.0029645006 -0.0045248778
2.52217e-40 2.29865e-40 -2.70029e-40 -2.77244e-40 -1.05016e-40 -7.7893e-41 -3.235927e-07 -2.99493e-40
-2.4853268e-14 -3.8774366e-14 1.7112081e-05 3.016e-41 -1.1965377e-13 2.0235215e-12 2.38785e-40 2.4797e-41
0.012858098 0.016369337 0.010843897 0.0040108217 0.018500505 -0.020400912 0.03748397 0.042620756
0.008772123 -0.009462501 0.01326131 0.04463323 0.013628085 -0.0059728557 -0.043713413 0.012668452
-6.50179e-40 -1.13616e-40 -4.90155e-40 4.57977e-40 -5.63094e-40 6.22332e-40 7.22e-42 -4.51894e-40
-5.75588e-40 2.78358e-40 -5.0020937e-08 3.7849e-41 -5.36176e-40 -3.9603e-41 -5.38235e-40 -2.13355e-40
1.3203122e-10 -9.938888e-05 2.8500704e-13 -1.899435e-12 -4.425228e-14 6.1995e-41 3.4022228e-06 -1.227032e-08
7.760107e-13 -6.040029e-14 8.032636e-09 -9.434556e-13 5.5936372e-08 3.1975642e-09 5.728807e-06 7.836895e-14
-0.004620643 0.013234619 0.0037008084 -0.006514484 -0.023023278 -0.00049752055 0.04208931 -0.0029681232
-0.014967125 -0.01757118 0.02993033 0.008039317 0.026607592 0.03081206 0.013576524 0.01011108
0.019447487 -0.0052769915 -0.0019680173 0.020746797 0.00065975456 0.018523285 0.0028645801 0.0027549476
-0.0045812842 -0.009190235 -0.0054600704 0.003986782 -0.0007023312 -0.028136004 -0.006104034 -0.01054464
0.0018667042 -0.022369048 -0.0047593573 -0.027789261 -0.013796164 -0.0077356542 -0.004822714 -0.02725893
0.0039785113 -0.0167731 -0.0018882257 -0.021148672 -0.0002635346 -0.044177037 -0.028197296 -0.013883527
-0.039040476 0.0062279725 -0.021849452 -0.008603266 -0.03355528 -0.0069379197 -0.018917423 -0.031267274
-0.0054927454 -0.009389618 0.025655588 -0.00040457924 0.014271164 0.0021061501 0.016821953 -0.006708607
6.381654e-15 -1.4246974e-08 7.450531e-05 -1.0767987e-08 -9.486396e-13 1.3907546e-09 -6.6586595e-05 1.9034046e-15
-2.2180523e-13 -1.4611956e-06 2.4840136e-10 -2.7267988e-10 1.5859801e-05 5.552349e-15 5.5419493e-13 1.8495008e-10
2.18713e-40 9.0996e-41 2.47796e-40 -2.53834e-40 -2.971e-41 1.49873e-40 -4.87198e-40 4.99713e-40
-6.50197e-40 6.30709e-40 4.07208e-40 -6.05959e-40 1.72364e-40 -2.54175e-40 -1.95969e-40 3.45573e-40
-0.008862833 -0.017505594 -0.020152973 -0.011582514 -0.024204578 -0.034539197 -0.016859598 -0.007852397
-0.018628826 -0.011764091 -0.0139410775 0.008624309 -0.010763687 -0.02598632 -0.02800815 -0.0011069843

fc1.bias f4 [128]
00000000: fa3a b9bc 854c f3bc fbbe febc 2200 dfbb
00000010: 531c eea7 eb59 313e add6 afbc b97c 7bbc
00000020: 250f adbc 0882 703e 1b3c 91b9 6ab1 a9bb
00000030: 037f 4bb9 2c13 343d 48b7 2db7 185e bcbb
00000040: 32ed e23d 0454 88bc 0210 59b6 3f61 6ab4
00000050: f308 5fbc 909d ce3e 9170 12ba b157 e2b7
00000060: 3fea 84ba a1e4 31be 1385 d0b8 601e dbbc
00000070: 06a7 c9bc bc9a b8bc 778f c73e 10b2 98bd
00000080: 9fc7 95bd 0f2d a8bc e4cf 7eae 5924 97bb
00000090: f056 74a7 064a 943e 8ad4 03af 7a4a 0abd
000000a0: 224b 81bc 276d b7b8 5b72 ccb9 0ca4 42b7
000000b0: 7897 02ba 88bc 6abc a545 2fb8 524a d2b7
000000c0: 6bda 06ba 74a6 56bc b038 9bbb e172 eb3d
000000d0: 1e26 86ba 2ab7 f398 f7d0 e2b7 0a02 77b7
000000e0: 4927 b2bc 945f 93bb 8d6d 8aba b915 a7bc
000000f0: f977 fdb7 a6a9 6ab1 617c f6ba 7fcc 23bc
00000100: 4bfd febc a936 61b9 2c7d a0ba 50ee 12bc
00000110: 7d04 0dbd a209 04be 5cda 313a b917 46ad
00000120: c1d0 55b3 8e69 51bd 8109 cc3e cc41 62af
00000130: 3456 9fbc 2cf0 f439 2900 cbbd 1493 81b1
00000140: 919f 98b5 1f00 9fbc b317 1c3e 9eff 1fbc
00000150: 24ed 03b6 71a5 793d 3116 5cbc a074 90bc
00000160: d663 a0bc 73bf 64ba 0213 b1bc a4f7 85bb
00000170: 780e 343d 56a7 51be 7b2e 18b8 8a44 44b1
00000180: f078 f0ba 253c 39b9 9308 49bc a9a9 cebb
00000190: 3b15 1fbc cdb3 f8b8 19c9 0abd eba8 3bb9
000001a0: 464d dd3d b2d5 14b8 9df1 32bd cace 0cbd
000001b0: 7865 75bc 40cf dabd 6196 14b8 4e15 dbb7
000001c0: ba1c 1d3d 2501 dabc c41f a7bc ad81 40bd
000001d0: faef 78bb 1969 c7ad fb8a 4bbd 3cca adba
000001e0: 794c f3ba 999b 3fb6 efc9 823e 54e8 c6b6
000001f0: 052f f6bc c287 b73d 7385 cbb3 bd16 f2ab
-0.02261113 -0.029699573 -0.031096926 -0.0068054358 -6.608898e-15 0.17319457 -0.02146467 -0.01534956
-0.021125386 0.23487103 -0.00027701337 -0.00517862 -0.00019406904 0.043963596 -1.0354277e-05 -0.0057485215
0.11080398 -0.016641624 -3.2344838e-06 -2.1828326e-07 -0.0136129735 0.40354586 -0.0005586232 -2.6982134e-05
-0.0010140612 -0.17372371 -9.943e-05 -0.026747882 -0.024615776 -0.02253472 0.38976642 -0.07455838
-0.07313465 -0.020529298 -5.7937558e-11 -0.0046124873 -3.3908931e-15 0.28962725 -1.198989e-10 -0.033762433
-0.015782896 -8.746451e-05 -0.00038995114 -1.1601496e-05 -0.0004981677 -0.014327176 -4.1788113e-05 -2.5068559e-05
-0.0005144241 -0.013101209 -0.0047369823 0.11496521 -0.0010234748 -6.2998976e-24 -2.7038606e-05 -1.4722822e-05
-0.021747248 -0.004497478 -0.0010561213 -0.0203961 -3.0215817e-05 -3.4147916e-09 -0.0018805378 -0.009997486
-0.031126639 -0.00021478035 -0.0012244335 -0.008967951 -0.03442811 -0.128943 0.0006784552 -1.1260264e-11
-4.9782788e-08 -0.051126055 0.39851 -2.0577956e-10 -0.019450285 0.0004671825 -0.0991214 -3.771115e-09
-1.1371322e-06 -0.019409237 0.15243416 -0.009765534 -1.9658555e-06 0.060948793 -0.013433025 -0.017633736
-0.019578855 -0.0008726038 -0.021615509 -0.004088359 0.04395911 -0.2047399 -3.6282912e-05 -2.8560714e-09
-0.0018346589 -0.0001766538 -0.012270111 -0.006306846 -0.009709652 -0.00011859052 -0.033883188 -0.00017896637
0.10805754 -3.548497e-05 -0.04368745 -0.034376897 -0.014977805 -0.10684061 -3.5426e-05 -2.6116755e-05
0.038357474 -0.026611874 -0.02040089 -0.04699867 -0.0037984834 -2.2670353e-11 -0.04969309 -0.0013259123
-0.0018562219 -2.8551788e-06 0.25544688 -5.9279064e-06 -0.030051718 0.089614406 -9.4771984e-08 -1.7201445e-12

fc2.weight f4 [128, 128]
00000000: d87d ea36 3b11 15b8 f385 d5bc 8127 fc35
00000010: f19f 0380 51c4 9fbc 6b36 2fbb d6e9 05ae
00000020: ff0b cbbb c427 ce3c 0f37 cf96 4c46 62a4
00000030: 373d 7ab4 68ca fb3a b97e eda9 cbc0 05bb
00000040: 99c7 3f3d 3e6f 2f3a 454d 0700 439c 9714
00000050: 4509 dc30 3370 753b d84d af38 979a 5a96
00000060: 8d17 3eb0 2611 9dbb aa58 0480 0495 c9b8
00000070: 3dd3 cc37 e0b4 9a3a d772 0ebd 417a fabc
00000080: ab03 fc3a 0172 f0b8 5fda 0000 a826 99bc
00000090: f38a 0280 bfec 183a 6ba2 0600 871e 3737
000000a0: 7ed0 2bb3 2800 86ae 97a4 c1b7 ff7f 0200
000000b0: 2e72 0580 6f31 31bd f00f 0200 0ffe 0380
000000c0: e6f9 0380 ce2d fbb8 4a21 f5ba d8a0 fabc
000000d0: 8458 0100 d5b0 7c27 456a 0700 a9ff 0000
000000e0: 07b5 79ad 3edd 0280 92d5 e034 e5c7 023a
000000f0: 9cde 6d0e cb6e 0180 a82a 0600 1618 0080
00000100: 28c0 93ad 352e 0000 d4ca 5e32 0d0b 383c
00000110: 6c34 1a3b 4949 dd3c 45a1 0080 e52c 0100
00000120: 25e8 95b4 9047 3ab4 bf3a e5bb 57f6 0180
00000130: 1458 d318 ad4d ab9b 67f1 60bc 6c23 0380
00000140: b516 0080 a5e1 9432 8774 97bb 5da8 343a
00000150: fc62 0100 e369 53bc b9cf b3a3 4490 25bc
00000160: 0e05 563d bb90 0580 d41d 73b7 c5e8 d837
00000170: 613e 2bbc f6fd 1bbd 201d 0700 6be4 341f
00000180: b461 0d16 1254 1fa5 3538 f1bc 2ed3 0680
00000190: 1d25 8380 2eba 0580 b454 01bd 2cac 0380
000001a0: cf18 c7bb 47a3 0580 4171 bfbb 853c 902b
000001b0: d510 1b2d ca80 4e39 889b 4004 2a20 a836
000001c0: 59fd dfbc 8c4b 6dab 7cce 28ae eb4e 8133
000001d0: d7ab 0480 c4cf 5a00 6916 05bc e6ba 7fa0
000001e0: cd50 a83a 2fcb 4fb5 bc08 2ebd 9544 0280
000001f0: 9cf4 55b5 edc3 afbd 1de3 0580 6fac 47a5
00000200: 9a53 c3a3 6780 7280 fd87 0480 4822 0080
00000210: 5953 0080 1194 af9a 3c5e e223 764c 19a3
00000220: 9237 0080 7881 8ba5 df07 0100 1877 4d1d
00000230: b05a 0000 7c8d 459d b667 8780 404d 0100
00000240: fcae ba15 a27c 1325 203c 0200 dbd8 0000
00000250: ad92 0080 4cf0 44ad 27b2 0680 e4e1 0300
00000260: 7b5a 0080 6037 7fa3 7805 fe95 cc30 0580
00000270: 44f4 079e 184b 0180 0ea4 55b7 bdbc 79b5
00000280: b38c 2322 f95e fea3 a6da 0100 40f6 05af
00000290: 3d3d 0100 6492 23b3 6dcd 0500 eea3 48a2
000002a0: 37b5 0500 9f74 0280 778e 0700 c254 99a0
000002b0: ff1f 0400 e2a1 0380 23bf c41b 520d 0600
000002c0: 249b 0280 0c7f 0080 dbc7 0400 4b94 6d20
000002d0: 65bb 0180 8b90 0000 2b76 0500 4b0e 089a
000002e0: 4e5e 0780 1b96 0400 376d 0100 fb19 0600
000002f0: 18da 0080 2d0a 0780 0a10 0380 1863 0600
00000300: 876e 0580 e969 0380 3d19 0780 d76f 0280
00000310: 87a1 0580 fff7 ce1c 7573 0080 5d95 0480
00000320: dccf 2381 4232 d7a0 6ff2 dcac d655 0580
00000330: d925 0380 21e1 0280 9e30 1bab 4e79 0000
00000340: 4b01 0080 5a35 0600 5e0b 0e9d e425 0680
00000350: eb26 0200 7eac 8f9c 027d a3a1 0636 0380
00000360: ddb2 e19d e218 0000 bbba 0380 4802 0100
00000370: 7e64 9c9e c569 2db5 c033 0180 8365 0500
00000380: 80f1 72ab 33fa 0180 a2c7 5c1c 7623 0480
00000390: 01f2 0400 6857 0500 5a79 a09f 8790 0600
000003a0: f7b6 84b5 0557 0080 e028 1f24 3a0e 0000
000003b0: 0771 0100 fd3a 1aa1 197f 0080 bfdf 0180
000003c0: 38d8 47b1 8ae2 6500 1be3 0480 4d2d 8319
000003d0: 20d1 0600 a008 0200 afa2 679c fc31 0380
000003e0: db74 0100 3fe1 0080 d260 ffb3 936d 0080
000003f0: 55fe 0100 0450 0eaf 5aa2 0380 ccc3 0180
6.9883936e-06 -3.5540415e-05 -0.026064849 1.878696e-06 -3.32883e-40 -0.01950279 -0.0026735316 -3.0448387e-11
-0.0061964984 0.025165446 -3.34774e-25 -4.9065482e-17 -2.3305334e-07 0.0019210102 -1.0546897e-13 -0.0020409103
0.04682121 0.00066922966 6.70568e-40 1.5308738e-26 1.6009741e-09 0.003745091 8.35915e-05 -1.765868e-25
-6.9155065e-10 -0.004793304 -3.99149e-40 -9.612183e-05 2.441706e-05 0.0011803173 -0.03477749 -0.030575873
0.0019227167 -0.00011465327 7.8337e-41 -0.01869519 -2.33517e-40 0.0005833618 6.09278e-40 1.0914758e-05
-4.0003663e-08 -6.093642e-11 -2.3084036e-05 2.29587e-40 -5.00137e-40 -0.043260034 1.89388e-40 -3.66646e-40
-3.65153e-40 -0.000119771445 -0.0018701938 -0.030594274 1.23589e-40 3.5067886e-15 6.80971e-40 9.1714e-41
-1.41942074e-11 -2.63038e-40 4.1878644e-07 0.0004988893 2.9319688e-30 -1.3158e-40 5.66315e-40 -8.64e-42
-1.67973e-11 1.6576e-41 1.29682185e-08 0.011233103 0.002352978 0.027012484 -5.7853e-41 1.0794e-40
-2.792232e-07 -1.7348634e-07 -0.0069955285 -1.80206e-40 5.4631158e-24 -2.8339774e-22 -0.01372943 -2.88213e-40
-8.146e-42 1.7332079e-08 -0.0046220454 0.0006891543 1.27344e-40 -0.012903663 -1.9495193e-17 -0.010105196
0.052250914 -5.11097e-40 -1.4490874e-05 2.5857598e-05 -0.010451884 -0.038083993 6.53297e-40 3.8305426e-20
1.1420719e-25 -1.3819536e-16 -0.029445747 -6.2677e-40 -1.2043764e-38 -5.25966e-40 -0.03157492 -3.3727e-40
-0.0060759555 -5.1775e-40 -0.0058423583 1.0248613e-12 8.814467e-12 0.00019693669 2.2640908e-36 5.0105346e-06
-0.027342485 -8.4304157e-13 -3.8382172e-11 6.021386e-08 -4.28987e-40 8.339727e-39 -0.008123019 -2.166118e-19
0.0012841463 -7.740918e-07 -0.0424888 -2.08274e-40 -7.9704637e-07 -0.08582292 -5.4065e-40 -1.7318921e-16
-2.1177349e-17 -1.0515309e-38 -4.16125e-40 -1.2298e-41 -2.99e-41 -7.261752e-23 2.4542879e-17 -8.310338e-18
-1.9935e-41 -2.4200388e-16 9.4659e-41 2.7193094e-21 3.2533e-41 -2.6145879e-21 -1.2434996e-38 1.19548e-40
7.540088e-26 1.2792445e-16 2.0524e-40 7.7793e-41 -5.2617e-41 -1.1194667e-11 -6.14922e-40 3.56541e-40
-3.2458e-41 -1.3835304e-17 -1.0259841e-25 -4.76683e-40 -7.1973534e-21 -1.18774e-40 -1.2733986e-05 -9.303438e-07
2.2165105e-18 -2.7578958e-17 1.70272e-40 -1.2183765e-10 1.13804e-40 -3.8084536e-08 5.3287e-40 -2.7191838e-18
5.24185e-40 -2.25507e-40 6.93955e-40 -2.5975296e-19 3.7882e-40 -3.33579e-40 3.2549e-22 5.55791e-40
-2.39325e-40 -4.5576e-41 4.39037e-40 2.0123747e-19 -1.5906e-40 5.1852e-41 5.01568e-40 -2.8135687e-23
-6.76679e-40 4.2119e-40 1.31014e-40 5.60333e-40 -7.8237e-41 -6.46499e-40 -2.8126e-40 5.86561e-40
-4.98827e-40 -3.135e-40 -6.51902e-40 -2.23792e-40 -5.17123e-40 1.3696042e-21 -4.1418e-41 -4.20923e-40
-3.0087504e-38 -3.6455675e-19 -6.2796916e-12 -4.8997e-40 -2.89084e-40 -2.64432e-40 -5.513453e-13 4.3516e-41
-4.64e-43 5.70152e-40 -1.879942e-21 -5.64606e-40 1.97632e-40 -9.507534e-22 -1.1078399e-18 -2.94886e-40
-5.9741944e-21 8.926e-42 -3.42493e-40 9.2654e-41 -1.6558705e-20 -6.4601437e-07 -1.104e-40 4.95593e-40
-8.631082e-13 -1.8159e-40 7.3049913e-22 -3.80063e-40 4.54157e-40 4.90533e-40 -6.7963395e-20 6.0286e-40
-9.888016e-07 -3.1217e-41 3.451225e-17 5.104e-42 1.32382e-40 -5.22553e-19 -4.5594e-41 -1.721e-40
-2.9081217e-09 9.356652e-39 -4.48812e-40 1.356338e-23 6.26033e-40 1.86765e-40 -7.664175e-22 -2.93438e-40
1.33755e-40 -8.0803e-41 -1.1891974e-07 -3.9308e-41 1.83073e-40 -1.2943252e-10 -3.33747e-40 -1.62074e-40

fc2.bias f4 [128]
00000000: 41f1 ffbc dd06 4524 d916 f8ba c0f5 8d3d
00000010: 0e70 053f db8b 9cb2 1a7b 47b4 f93f 9d3e
00000020: f827 f0b6 daa8 173e 9ad5 ec3d 9ff0 083d
00000030: aa23 e4aa 2d17 f03d e1ec b5b0 27bf 13bd
00000040: 45e6 d1b1 439b 86bc 2501 3c3e 4484 2fbd
00000050: 4d3a 22bd f7bf 33bc 4880 b33e 992c 77b7
00000060: 1286 c8bb bc94 54bd db69 82ba 1f89 d7bc
00000070: 1644 4e3c 9f8a aabc ed77 c6bd 2455 b4bb
00000080: a70f 97b3 0692 8b3e 6d99 51bc c651 38b9
00000090: 86a1 6ebc cbb4 b4b8 c1b0 44ba d73c 543d
000000a0: 3018 00bd 7602 91bc 862d 0dba 853d 35b1
000000b0: d279 1abd cec3 c5bc b883 dfbc f9f5 fdbc
000000c0: 25bc b6bc 9003 0180 e2ec 393e 89b2 8ebb
000000d0: 0c43 43b9 e6fa d5bc ccc9 82bb 1e6d f2ac
000000e0: 9221 6dbb c9a8 9c3e 95d3 67bc 80c6 01bd
000000f0: b278 273e 29a1 65bd f5a2 0bbd fe00 feba
00000100: 11dd e1bc fdb5 9abc 757f abb9 ce9b d7bc
00000110: 0ff7 773d 7986 953e 1158 41bd a851 5abb
00000120: b2f0 50bd b303 573e 23b6 10bd 3cdf f5b9
00000130: 3076 8e3e 5219 b8bc 7d10 21bd 66f5 2ab9
00000140: a52b 1abd 03f4 d9bc 5e5d f7bc 2456 9c9d
00000150: 7009 2696 0590 65a7 1303 58bc 0e17 d9b2
00000160: 5346 fdbc f3c1 57bb 733e 193d 1d39 b5ba
00000170: 3a2b 663d 4ad8 00b9 c338 81bc c18c f3a7
00000180: 6c59 4aa6 a9b6 bcbc d597 fdbc 7174 ee3d
00000190: b3ae 99bc 5606 85bd 2f0d 13bd 5fd0 0dbd
000001a0: 7133 e6bb 935d 23a7 86f4 763e f419 8fb5
000001b0: 08d8 f2a3 17c0 123e 4c63 25bd c0f6 373e
000001c0: 0e43 173e 84a2 58bd 6eb4 04bb 403f daba
000001d0: 00f7 483e 8a99 15bd 189d d5b5 2c57 9fbc
000001e0: 1595 72bc 42fe 303e cc93 cebc f572 2fb0
000001f0: b84a ffbc 292e cbbc fcd4 44ba 7a5b 33bd
-0.031242969 4.272338e-17 -0.0018927708 0.06931639 0.52124107 -1.8224389e-08 -1.8578103e-07 0.3071287
-7.1572103e-06 0.14810506 0.11564179 0.0334326 -4.0525683e-13 0.117231704 -1.3236808e-09 -0.03607097
-6.108879e-09 -0.016431456 0.18359812 -0.042850748 -0.03960638 -0.010971061 0.35058808 -1.4732731e-05
-0.006119498 -0.051899657 -0.000994976 -0.026310502 0.012589475 -0.020818053 -0.09690843 -0.0055033136
-7.0343326e-08 0.27259845 -0.012792927 -0.0001757807 -0.014564877 -8.616744e-05 -0.0007503145 0.051815834
-0.031273067 -0.017701369 -0.00053855067 -2.6373936e-09 -0.037713833 -0.024141219 -0.027284488 -0.031001078
-0.022306511 -9.3113e-41 0.1815677 -0.004354779 -0.00018621626 -0.026120614 -0.003991341 -6.890168e-12
-0.003618334 0.30597523 -0.014149566 -0.031683445 0.16354635 -0.056061897 -0.034090955 -0.0019378958
-0.027571233 -0.018885607 -0.00032710625 -0.02631941 0.060538348 0.29204157 -0.047203127 -0.003331283
-0.051010795 0.20997505 -0.03532995 -0.00046896364 0.27824545 -0.022473011 -0.039322365 -0.00016303881
-0.03763928 -0.026605612 -0.030195888 -4.1381923e-21 -1.3412351e-25 -3.1858207e-15 -0.013184327 -2.5272609e-08
-0.030917322 -0.0032922 0.03741307 -0.0013826225 0.056193568 -0.00012287605 -0.015774136 -6.7598654e-15
-7.020402e-16 -0.023036318 -0.030956188 0.11643303 -0.01876006 -0.06495349 -0.035901245 -0.034622546
-0.0070251753 -2.267152e-15 0.24116716 -1.0661884e-06 -2.6329185e-17 0.14331089 -0.0403779 0.17965221
0.14771673 -0.052889362 -0.0020249146 -0.001665093 0.19625473 -0.03652338 -1.5915457e-06 -0.019450746
-0.014806052 0.17284492 -0.02521696 -6.3827993e-10 -0.031163558 -0.024802284 -0.0007508544 -0.04378841

fc3.weight f4 [10, 128]
00000000: dee5 26bd 985d 81a6 97d8 ed3a 7e8c ecbd
00000010: 8910 87be 8475 20b7 a825 259a 05b7 87bd
00000020: 3f1e 393b f047 7c3e a7b4 a13c a995 03be
00000030: 5421 acaa 2bde b63d 0200 e135 e3b9 2d3e
00000040: 999f e9b5 d80c 58bc d1b8 3a3d e71d 0fbd
00000050: 341c cf3c d9fa c93a 6dd4 313e 4006 c639
00000060: d282 ccbb b83f a7bc 6516 e0bb 184d b7bb
00000070: 1133 8e3c 765d 4b3c dc49 ebbc 0d54 823b
00000080: b9ac 9138 2e73 f83d a9ca 8abc dae6 4a3a
00000090: 7d53 7bbb 7403 383a cef5 debb cb18 98be
000000a0: 81d8 8dbd e05a 89bb deff 213b 6d56 bc9f
000000b0: 4816 0f3c 1b4e 78bc 1f6c 06be fac9 8dba
000000c0: c324 77bc 7bdb 40a6 b52a 1b3d c38c d9ba
000000d0: 6b0b 1b38 c794 723d 183c 0dbc d49c 6438
000000e0: 63e2 3d3b 0992 49be 5603 3cbb a5d2 55bc
000000f0: 0e8e 173e 8db8 ddbc 949e 583b 46de a5ba
00000100: a2c6 9a3c f79e eebc d750 8fb9 e8b1 ebbc
00000110: b7be 453e 5d31 57be 4426 aabb 6089 943b
00000120: c179 39bd c9e4 f73d 486f 53bd c79a 903d
00000130: 0c41 e1be 5872 3bbc bcc8 e63b e55e da3a
00000140: b7c5 1abc 029c 163c a056 613b ee0f 0830
00000150: 333c 66a5 5ed1 d7ae e3a9 b9ba 42c3 c6b3
00000160: 5483 bb3e 4254 57b8 2122 0c3a 4152 c1b5
00000170: be15 36be 750d 08ba 0096 ab3b 0dad df99
00000180: adea ac25 ff2c 2cbc c0e1 343c c4b0 c4be
00000190: 18a4 84bd 3067 10bb f4e0 f23c 21a4 06bd
000001a0: 0d8a e93b 170c 4b31 ca3b f1be 8939 6daf
000001b0: a1e4 922b 0d30 95bd d99e 39bd 5746 e3bd
000001c0: b7f1 89be a3f0 b1bc 9265 653a 5341 3cb7
000001d0: bd49 dfbd f54c 1fbe 500a 9f35 a947 c13a
000001e0: ffdc 96bc 03eb e8bd 71aa 84bb 4f2d c0b5
000001f0: 33de 6abd f592 97bd 72f8 d6bc ad65 bcbc
00000200: 88dd b8bc 0046 4523 8a6a 7fbb c7a0 15be
00000210: d9fa 3fbe ab45 3e37 322b d330 510b dcbe
00000220: c21a 0639 edb3 8fbe b023 9ebd bd91 a9bc
00000230: 47d0 68b0 ad6b 47bd a4f0 a4b8 4f4d d03d
00000240: a473 16b6 4cfc 0abb 41b5 53be 1051 1cbc
00000250: 6ccf b9bd 4b3d 2b3b e596 e4be 9328 4bb3
00000260: 4235 29bb 652c c0bc e6e4 debb ccd3 dc38
00000270: c99d f43c 0b18 ddbc 531a 923e d61d 193a
00000280: e3f3 09b4 836b b83d e41b 90bb 455f 46b7
00000290: 865b ebbb 2e34 8abb 1254 c8b3 7991 863e
000002a0: 2a7f bbb6 76ae 2f3c 3a94 2fa7 f1e8 ddb1
000002b0: 991e eebb 0ae3 f6bb 2771 c73b e812 a7ba
000002c0: 6121 66ba 3134 0180 0ae7 2bbe aaba 96b9
000002d0: 9644 21b7 7336 883e cefc 2f3c 0dde 03b5
000002e0: 5aee 0dba ccb6 3bbe a198 373a 4e1d 15bc
000002f0: 18aa 15be bac4 4b3c 889f 023d cae1 6c39
00000300: 77b2 34bc fe8a 59bb de78 bdb4 1df3 663c
00000310: 8560 a23d b0a9 ecbd ca09 2a3d 1e85 21b9
00000320: 9d7f 6ebc f25a d2bc 09e0 303c f900 5f3d
00000330: 67ce 4fbe 5612 413b cac2 04bd 00b7 953a
00000340: 507d d03c 663a 87bc 4210 37bc 8f51 580b
00000350: a72b 152f c920 1735 5345 3fbc 7749 0739
00000360: e49f 923d 175d 013c c9b1 da3c 81b0 07b9
00000370: f603 ab3d 9c79 9238 8208 9cbb 131d 0400
00000380: 47ad a9b3 4c1b 5cbd a952 5cbd bc9d 093e
00000390: 711d 04bb f75e aabd 72f3 e4bc f2b1 7abc
000003a0: a983 1dbb a21c 7498 a5d6 d3be ea2d 43b6
000003b0: fdd1 0db5 848f 4abd fdde 92bc baa0 70bd
000003c0: 6e2a e13c 91e0 943b 3211 66bb d595 dbbb
000003d0: c4ad 69be 4a70 a53e fcf1 ba38 a715 a0bc
000003e0: db1d d63a 65dd 21be 4ebf 91bc 3a61 f92d
000003f0: a325 8d3e a446 fa3c 9c45 b33c 650a 12bd
-0.040746562 -8.976542e-16 0.0018146214 -0.11550234 -0.26379803 -9.564104e-06 -3.415162e-23 -0.06626705
0.0028246788 0.24636817 0.019739462 -0.1285006 -3.0576464e-13 0.08929094 1.6763809e-06 0.16965441
-1.7406302e-06 -0.013186656 0.04558641 -0.034940626 0.025282003 0.0015409841 0.1736619 0.0003777016
-0.006241181 -0.020416126 -0.006838607 -0.005593907 0.017358335 0.01241242 -0.028721742 0.003977305
6.946311e-05 0.12131344 -0.016942339 0.0007740088 -0.0038349323 0.00070195575 -0.0068042045 -0.29706416
-0.069260605 -0.0041917413 0.002471916 -7.9764077e-20 0.00873334 -0.015155341 -0.13127182 -0.001081764
-0.015084448 -6.6910833e-16 0.037882525 -0.0016597736 3.6965514e-05 0.059223916 -0.0086202845 5.4505494e-05
0.0028974048 -0.19684614 -0.0028688512 -0.01305071 0.14800283 -0.02706554 0.0033053504 -0.0012654744
0.018893544 -0.029128535 -0.00027335316 -0.028771356 0.19311033 -0.21014924 -0.00519255 0.004532978
-0.04528213 0.12104184 -0.051619798 0.070607714 -0.4399494 -0.011440836 0.0070429724 0.0016660361
-0.009446553 0.009192469 0.0034383908 4.949915e-10 -1.9969716e-16 -9.814259e-11 -0.001416501 -9.255611e-08
0.36623633 -5.1338466e-05 0.0005345662 -1.440356e-06 -0.17781731 -0.00051899935 0.0052363873 -2.3127554e-23
2.9996266e-16 -0.010508775 0.011040151 -0.3841611 -0.06476611 -0.002203416 0.029648282 -0.03287137
0.0071270526 2.954726e-09 -0.47115928 -2.1575465e-10 1.0437381e-12 -0.072845556 -0.045317505 -0.11097401
-0.26942226 -0.02172119 0.0008750792 -1.1220883e-05 -0.10902736 -0.155567 1.1849424e-06 0.0014746088
-0.018415926 -0.1137295 -0.0040486385 -1.4318301e-06 -0.057340812 -0.07401077 -0.026241515 -0.022997702
-0.022566572 1.06942145e-17 -0.0038973414 -0.14612113 -0.18748035 1.1341103e-05 1.5364547e-09 -0.42977384
0.00012789204 -0.2806696 -0.077216506 -0.020699376 -8.469709e-10 -0.048686672 -7.864952e-05 0.101709954
-2.2419053e-06 -0.002120751 -0.20674612 -0.009540811 -0.09072766 0.0026129063 -0.44646373 -4.7301523e-08
-0.0025819098 -0.023458669 -0.006802189 0.00010529868 0.029860394 -0.026989004 0.2853571 0.0005840933
-1.2847845e-07 0.09004881 -0.004397856 -1.1823901e-05 -0.0071825413 -0.004217646 -9.328518e-08 0.26282862
-5.587838e-06 0.010722747 -2.4366482e-15 -6.458429e-09 -0.007266831 -0.0075343894 0.006086487 -0.0012746723
-0.00087787776 -1.10558e-40 -0.16787353 -0.00028749305 -9.612317e-06 0.2660404 0.010741426 -4.912443e-07
-0.00054142403 -0.1833145 0.00070036395 -0.009101225 -0.14615667 0.01243704 0.031890422 0.00022590827
-0.011028877 -0.0033194418 -3.5291936e-07 0.014096049 0.07928566 -0.11555803 0.04151324 -0.00015403747
-0.014556793 -0.025678132 0.010795602 0.054444287 -0.2029358 0.0029460392 -0.032412328 0.0011422336
0.025450379 -0.016507339 -0.01117331 4.1661445e-32 1.356698e-10 5.629959e-07 -0.011674243 0.00012901971
0.07159403 0.0078957295 0.026696103 -0.00012940356 0.08350365 6.984474e-05 -0.0047617564 3.77772e-40
-7.901195e-08 -0.05373697 -0.05378977 0.13439077 -0.002015915 -0.08318894 -0.027948115 -0.0153012145
-0.0024034774 -3.1550717e-24 -0.41374698 -2.908399e-06 -5.2832166e-07 -0.049453273 -0.017928595 -0.05874703
0.027486052 0.004543372 -0.0035105464 -0.006701211 -0.22820193 0.32312232 8.914244e-05 -0.019541575
0.0016335802 -0.15807112 -0.017791416 2.83512e-11 0.27567777 0.030551262 0.021883778 -0.035654444

fc3.bias f4 [10]
00000000: b522 9abd d753 c9be 5fc3 d1bd cd81 c93e
00000010: eccb 833e b4af 98bc 0a35 3ebd 6334 42bd
00000020: ac20 cb3d 613b aabd
-0.07526151 -0.39321777 -0.10242342 0.39356843 0.25741518 -0.01863847 -0.0464373 -0.04741324
0.09918341 -0.08312107
