sample_models/cifar_weight_2_5e-5.pth (torch_old, 687237 bytes, 12 tensors)

conv1.weight f4 [12, 3, 3, 3]
0	0xbeac6470	-0.33670378
1	0x3e6f1cfe	0.23350903
2	0x3e3f5806	0.18685922
3	0x3e90cdfa	0.28282148
4	0xbefd041f	-0.49417207
5	0x3ea01fcb	0.31274256
6	0x3e2fd837	0.17172323
7	0x3e347f39	0.17626657
8	0xbe9c6d64	-0.30552208
9	0xbe8bf7d7	-0.27337524
10	0x3ead4f78	0.33849692
11	0x3ec7c57d	0.3901786
12	0xbd6b70ec	-0.057480738
13	0xbf4f8f02	-0.8107759
14	0xbd8b6b9b	-0.068076335
15	0x3e891a4d	0.26777878
16	0xbbcde32b	-0.006283184
17	0xbe8b8352	-0.27248627
18	0xbe2835b3	-0.16426735
19	0x3e8d61b5	0.27613607
20	0x3e8a9966	0.2707016
21	0xbdb2c9ff	-0.08729934
22	0xbf296937	-0.6617617
23	0xbce9bc4b	-0.028532168
24	0x3ec0b51b	0.37638173
25	0x3e8afb5b	0.27144894
26	0xbe271788	-0.1631757
27	0x3cd37c4d	0.025816107
28	0xbe9a94e1	-0.3019171
29	0xbe895dfe	-0.26829523
30	0x3e9bc91c	0.30426872
31	0xbe99c2b1	-0.3003135
32	0xbeb142e4	-0.34621346
33	0xbdc5d4ba	-0.09659715
34	0xbdde4852	-0.10853638
35	0xbe5f8a1e	-0.21830031
36	0x3d04ff18	0.03246984
37	0x3df0c19a	0.117556766
38	0xbe2122f8	-0.15735996
39	0x3ea415b8	0.3204782
40	0xbe0b3c2c	-0.13597172
41	0xbd616568	-0.05502835
42	0xbe0d1c96	-0.13780436
43	0xbe36c6f2	-0.17849329
44	0xbeabf793	-0.33587322
45	0x3cb89f21	0.022536816
46	0x3e2d7fd1	0.1694329
47	0x3ecf7216	0.40516728
48	0x3cbac0b1	0.02279696
49	0x3e48e1ad	0.19617338
50	0x3eb2275b	0.3479565
51	0x38e41a34	0.00010876768
52	0xbcb6f7f0	-0.022335023
53	0xbe7d6f4d	-0.24749489
54	0x3e187d41	0.1489153
55	0xbe953433	-0.29141387
56	0x3e1eb524	0.15498787
57	0xbf0fe4c1	-0.56208426
58	0x3e382496	0.17982706
59	0x3ee704db	0.45120892
60	0xbe4d7bfe	-0.2006683
61	0x3e134364	0.14381176
62	0x3d2a480c	0.041572616
63	0xbe4a3bfa	-0.19749442
64	0xbe2afe2b	-0.1669852
65	0x3e8add7f	0.27122113
66	0xbee692fe	-0.4503402
67	0x3b94e40a	0.004543786
68	0x3eb567dd	0.35430804
69	0xbe882dbe	-0.265974
70	0x3eb6f8c1	0.3573666
71	0x3cc542de	0.024079736
72	0xbdeee023	-0.116638444
73	0xbe0cb6c3	-0.13741593
74	0x3d6e0df2	0.058118768
75	0xbeaf1276	-0.34193772
76	0x3e1f0a5f	0.155313
77	0x3ec3ab98	0.38216853
78	0x3d2f0c77	0.042736497
79	0x3e77c888	0.2419759
80	0xbe53087e	-0.20608708
81	0x3cad70df	0.021171985
82	0x3dd32302	0.103094116
83	0xbd9ea029	-0.07745392
84	0x3dfd2c9b	0.123620234
85	0x3eb5c049	0.35498264
86	0xbea96248	-0.33082795
87	0x3c6966d0	0.014245704
88	0x3dde84ae	0.108651504
89	0xbe09b297	-0.13447033
90	0x3b0f7fdc	0.0021896278
91	0x3e70dc90	0.23521638
92	0xbec80ce3	-0.39072332
93	0x3ec53374	0.38515818
94	0x3d0b839b	0.034061056
95	0xbf08151c	-0.5315721
96	0x3df5da4b	0.12004527
97	0x3dd3dca5	0.10344819
98	0xbe6146d1	-0.2199967
99	0xbc53c310	-0.0129249245
100	0x3e95f273	0.29286537
101	0xbea9f46f	-0.331943
102	0x3ecb2640	0.3967762
103	0x3e8a87ec	0.27056825
104	0xbf0ea9fe	-0.5572814
105	0xbdccbd5c	-0.09997055
106	0x3e828402	0.2549134
107	0xbe1167d0	-0.14199758
108	0xbec9c59a	-0.3940857
109	0xbf0fea0c	-0.562165
110	0xbd72edd2	-0.059308834
111	0xbdb63304	-0.08896449
112	0x3d5fdacc	0.05465202
113	0x3ca88f48	0.020576134
114	0x3ecec44a	0.40384132
115	0x3eeadf7b	0.45873627
116	0x3d0a65c4	0.033788458
117	0xbe962d99	-0.29331663
118	0xbe35111f	-0.17682312
119	0xbe433570	-0.19063354
120	0x3d9fd725	0.078047074
121	0x3e1ad4fe	0.15120313
122	0x3e50d4c6	0.20393667
123	0x3e7b5752	0.24545029
124	0x3e55e501	0.2088814
125	0xbe1f4c05	-0.15556343
126	0xbdd8a2e9	-0.10577948
127	0xbdb55ebb	-0.08855959
128	0xbba9bb89	-0.0051798266
129	0x3c8f8577	0.017519696
130	0x3e9dcc44	0.30819905
131	0x3eaa1d39	0.3322542
132	0x3d95f75a	0.07322569
133	0xbe12bbf5	-0.14329512
134	0xbe8f6ea3	-0.28014097
135	0xba158a70	-0.0005704528
136	0xbe5e153a	-0.21687785
137	0xbdd4d9fe	-0.10393141
138	0xbede05e9	-0.43363884
139	0xbe0757d1	-0.13217093
140	0x3dde532f	0.1085571
141	0xbd2c3044	-0.042038217
142	0x3d31a40a	0.04336933
143	0x3dbfb127	0.09359961
144	0x3da754f6	0.08170502
145	0xbdb29e58	-0.08721608
146	0xbe70a136	-0.23498997
147	0x3da3231d	0.07965682
148	0x3e3ed83f	0.18637179
149	0x3dbc256b	0.091868244
150	0xbe2d37d6	-0.16915831
151	0xbe34901c	-0.17633098
152	0xbed66312	-0.4187246
153	0x3e9d336c	0.30703294
154	0x3ee052ff	0.4381332
155	0x3c284f3e	0.010272799
156	0x3ed2c22b	0.41163763
157	0x3e8da137	0.2766206
158	0x3e128157	0.14307152
159	0x3ce8f400	0.02843666
160	0xbcda318f	-0.02663496
161	0xbcb84a51	-0.022496374
162	0xbe87bc57	-0.2651088
163	0x3f03205a	0.5122124
164	0xbf11842f	-0.5684232
165	0xbe9056b1	-0.2819114
166	0x3e3d57e8	0.18490565
167	0xbe975474	-0.2955662
168	0xbdfc2761	-0.123121984
169	0xbbf39f49	-0.0074347598
170	0xbd2832c9	-0.041064057
171	0xbe0fa0c0	-0.14026165
172	0x3f29f20c	0.6638496
173	0xbe9f0a85	-0.31062713
174	0xbe326dc7	-0.17424689
175	0x3f1b9a7b	0.60782593
176	0x3e96abe0	0.29428005
177	0x3e50bf54	0.20385486
178	0xbd723203	-0.059129726
179	0x3e5daf02	0.21648791
180	0x3cfb0ece	0.030646708
181	0x3e48f9a7	0.19626485
182	0xbeb5ba68	-0.3549378
183	0xbeac3b2c	-0.33638895
184	0x3e8e2308	0.27761102
185	0xbd8fb844	-0.07017568
186	0xbd9d236a	-0.0767277
187	0xbead5f0b	-0.33861575
188	0xba6fb936	-0.0009144725
189	0xbe208ea0	-0.15679407
190	0xbe2d7377	-0.16938578
191	0xbeaa33f0	-0.3324275
192	0x3e795ef1	0.24352624
193	0x3e8bbaf6	0.27291077
194	0x3e068ab8	0.13138855
195	0x3dc049eb	0.09389099
196	0x3eb0cb53	0.34530124
197	0x3e44f9fc	0.19235986
198	0x3cc773e1	0.024347248
199	0xbd6c4c80	-0.057690144
200	0x3dd4d5f2	0.10392369
201	0x3d86d601	0.06583787
202	0x3e691a21	0.22763874
203	0x3d406080	0.04696703
204	0xbe0d07bf	-0.13772486
205	0x3e3d6119	0.18494071
206	0xbcd7f456	-0.026361626
207	0x3f09ff3a	0.5390507
208	0xbdeebd7a	-0.116572335
209	0xbcceedc4	-0.02525986
210	0x3e8f2e89	0.2796519
211	0xbdd53e92	-0.10412325
212	0xbee5f360	-0.44912243
213	0xbd160471	-0.03662533
214	0xbdd71f7a	-0.105040506
215	0xbf0a657f	-0.5406112
216	0x3cae934b	0.02131047
217	0xbe932786	-0.2874109
218	0x3e6ac34a	0.2292606
219	0x3dd95fbd	0.10613964
220	0xbeb82c4e	-0.35971302
221	0x3e893d1c	0.26804435
222	0x3ee531d5	0.4476458
223	0xbf02c001	-0.51074225
224	0x3e2b510a	0.16730133
225	0x3e43d06a	0.19122472
226	0xbeeb82ae	-0.45998138
227	0x3e45245a	0.19252148
228	0x3decf4ff	0.11570167
229	0xbeede1ef	-0.46461436
230	0x3eef018f	0.46680877
231	0x3e8b3384	0.2718774
232	0xbf163f6e	-0.58690536
233	0x3dee627b	0.116398774
234	0x3d662f31	0.05619735
235	0xbe69d750	-0.22836041
236	0x3dcc5622	0.09977366
237	0x3e99d4ef	0.30045268
238	0xbf0eeae4	-0.55827165
239	0x3e9451c1	0.28968623
240	0x3ecb4499	0.39700773
241	0xbee4b67d	-0.44670478
242	0x3e118902	0.1421242
243	0x3e975def	0.29563853
244	0x3f1ca902	0.61195385
245	0x3ec7f941	0.39057353
246	0x3e635bd3	0.22202997
247	0x3e62a0d9	0.22131671
248	0x3db32e0d	0.08749018
249	0xbeea9c02	-0.4582215
250	0xbde62484	-0.112374336
251	0xbe2ba4d0	-0.1676209
252	0xbe65c728	-0.22439253
253	0xbe8e3575	-0.2777516
254	0xbea38479	-0.31937006
255	0xbeda2f7b	-0.4261435

conv1.bias f4 [12]
0	0xbe20aa6c	-0.15690011
1	0xbe93e318	-0.28884196
2	0xbda8efc8	-0.0824886
3	0xbdfd7e75	-0.123776354
4	0xbe282932	-0.16421965
5	0x3dd83533	0.10557022
6	0xbe0232cd	-0.12714691
7	0xbf075866	-0.5286926
8	0xbdc6a644	-0.096996814
9	0xbecd8deb	-0.40147337
10	0xbe22eb9a	-0.15910187
11	0xbee43a7e	-0.44575876

conv2.weight f4 [32, 12, 3, 3]
0	0x3e6af5e6	0.22945365
1	0x3e3381a3	0.17529921
2	0x3e2da41f	0.16957138
3	0x3d69e90b	0.057107013
4	0x3db73a62	0.089466825
5	0x3bb9d896	0.005671571
6	0xbeaa41e4	-0.33253396
7	0xbe60fff2	-0.21972635
8	0xbd8973ce	-0.06711541
9	0xbdf5f1a0	-0.12008977
10	0xbec0c9ad	-0.37653866
11	0xbd64b15b	-0.0558332
12	0xbb3a034c	-0.0028383313
13	0x3e1ee2ce	0.15516207
14	0x3e57e689	0.21084036
15	0x3e0b4ea7	0.13604222
16	0x3e976bcf	0.2957444
17	0xbba827e2	-0.0051317075
18	0x3e1fa0d1	0.1558869
19	0xbbb9e947	-0.005673561
20	0xbea5dbd6	-0.32394284
21	0x3ce6deaf	0.028182356
22	0x3df2f7ad	0.11863647
23	0x3e6318b6	0.22177395
24	0xbf0c687d	-0.54846936
25	0x3e270c96	0.16313395
26	0x3e62c10c	0.22143954
27	0x3e099664	0.13436276
28	0x3d06083f	0.032722708
29	0x3e22171d	0.1582913
30	0xbe393532	-0.18086699
31	0x3db638f3	0.08897581
32	0xbd034c64	-0.032055274
33	0xbc0dd540	-0.0086568
34	0xbe8da9fd	-0.27668753
35	0xbe70f09f	-0.2352929
36	0xbe80955d	-0.25113955
37	0x3d11170c	0.03542237
38	0xbe1683a3	-0.14698653
39	0xbd306818	-0.04306802
40	0xbeb268dc	-0.34845626
41	0xbe3adee1	-0.18249084
42	0xbe885d63	-0.26633748
43	0xbd1a5b94	-0.037684992
44	0x3de3c2fc	0.11121175
45	0x3e7b2d83	0.2452908
46	0x3dbf10e8	0.093293965
47	0x3bd954bf	0.006632417
48	0x3db05f16	0.08611886
49	0x3e2a738b	0.16645639
50	0x3e952ad5	0.2913424
51	0xbe9d0784	-0.30669796
52	0xbe312bd8	-0.17301881
53	0xbdc6b939	-0.09703297
54	0x3e8b7c0b	0.27243075
55	0x3d3af12b	0.045640152
56	0x3dda166e	0.106488094
57	0x3e100e6d	0.14068003
58	0xbd927c28	-0.07152587
59	0xbe4de576	-0.20107064
60	0xbea609c1	-0.32429317
61	0xbe198c8b	-0.14995019
62	0xbd177500	-0.036976814
63	0x3f0c55b5	0.5481828
64	0x3ec1618d	0.37769738
65	0xbd3ccc11	-0.04609305
66	0xbe32bb9d	-0.17454381
67	0xbe3e024c	-0.18555564
68	0xbba7923f	-0.0051138694
69	0xbe8c3fb7	-0.2739236
70	0xbf100b16	-0.56266916
71	0x3e08e63c	0.13369077
72	0x3c87aaa6	0.016560864
73	0x3e063b4d	0.13108559
74	0x3d036710	0.03208071
75	0x3e214438	0.1574868
76	0xbda40503	-0.080087684
77	0x3c8243ad	0.015901411
78	0xbe9b6704	-0.30352032
79	0x3caa5906	0.020794403
80	0x3d4e0488	0.05029729
81	0x3e3d7234	0.18500596
82	0xbdf71757	-0.120649986
83	0xbdb7184d	-0.08940182
84	0x3c9fee26	0.019522738
85	0x3eb8f953	0.3612772
86	0x3dc9ba84	0.09850028
87	0x38138f86	3.5181198e-05
88	0xbcadbb73	-0.021207547
89	0xbd1227ad	-0.03568237
90	0x3e9fea23	0.3123332
91	0x3d1e4ffc	0.038650498
92	0x3e1301e1	0.14356185
93	0x3e882edc	0.2659825
94	0x3f249dc6	0.64303243
95	0xbc87f55d	-0.01659649
96	0x3eab3b7f	0.3344383
97	0x3e2751b4	0.16339761
98	0x3e1cb207	0.15302287
99	0x3e483248	0.19550431
100	0xbe9f4134	-0.31104434
101	0xbe4f5a24	-0.2024923
102	0xbe2552b1	-0.16144826
103	0xbe07c338	-0.13258064
104	0x3dc9032e	0.098150596
105	0xbea757de	-0.32684225
106	0xbe8db32d	-0.27675763
107	0xbe62f98e	-0.2216551
108	0x80538187	-7.668812e-39
109	0x028c7f4e	2.064422e-37
110	0x80156663	-1.965275e-39
111	0x8049ca72	-6.776615e-39
112	0x80667c85	-9.41189e-39
113	0x8028c4cb	-3.744016e-39
114	0x04c0e9d1	4.535371e-36
115	0x80533932	-7.642864e-39
116	0x8073aa39	-1.0622146e-38
117	0x807dc0a9	-1.154855e-38
118	0x808ab864	-1.2739445e-38
119	0x8082bd35	-1.2006489e-38
120	0x05589c5d	1.01849906e-35
121	0x0667af62	4.3575122e-35
122	0x06c9e591	7.5945114e-35
123	0x898e011b	-3.4186296e-33
124	0x8f848224	-1.3066333e-29
125	0x8f778b9d	-1.2204929e-29
126	0x03433c09	5.7374267e-37
127	0x919faddb	-2.5192923e-28
128	0x94e0ddfb	-2.2705776e-26
129	0x01f978a2	9.1641254e-38
130	0x9109eb34	-1.0879872e-28
131	0x93b200d8	-4.493435e-27
132	0x803dd483	-5.6782e-39
133	0x03fc9c8f	1.4847173e-36
134	0x85e840a6	-2.1840923e-35
135	0x94fc9eaa	-2.550808e-26
136	0x02868fa6	1.977198e-37
137	0x028a7849	2.0346318e-37
138	0x919d8200	-2.485035e-28
139	0x8098b270	-1.4023007e-38
140	0x883e9f45	-5.7363266e-34
141	0x0447c319	2.3481922e-36
142	0x8092cc82	-1.3481346e-38
143	0x8009688b	-8.64022e-40
144	0xa2940cf1	-4.0129183e-18
145	0xa428b94e	-3.6586152e-17
146	0x24f49527	1.06070806e-16
147	0x8d7d931f	-7.8138735e-31
148	0x8f287216	-8.305012e-30
149	0x8fdcb9fb	-2.1765312e-29
150	0x805543bc	-7.830316e-39
151	0x803a36cd	-5.346118e-39
152	0x805fb275	-8.78839e-39
153	0xa76bb6a8	-3.271182e-15
154	0xa89ea407	-1.761266e-14
155	0x280e8db1	7.913308e-15
156	0xa8be92e9	-2.115795e-14
157	0xaa44be73	-1.7474372e-13
158	0x29101c4f	3.1998977e-14
159	0xa90159fd	-2.8721806e-14
160	0xaa6be95d	-2.0953157e-13
161	0x2ac2bfb1	3.4594335e-13
162	0x80840646	-1.2124536e-38
163	0x808853d0	-1.2519694e-38
164	0x80792c9e	-1.11281e-38
165	0x806ce507	-1.0000393e-38
166	0x808b8083	-1.2811235e-38
167	0x8080e75e	-1.1837942e-38
168	0x808e6b42	-1.3079117e-38
169	0x805ed64b	-8.70941e-39
170	0x8087ddad	-1.2477314e-38
171	0x809381b4	-1.3546347e-38
172	0x8090da07	-1.3302525e-38
173	0x806158b6	-8.939867e-39
174	0x806f0f52	-1.0199236e-38
175	0x808d76ad	-1.2991378e-38
176	0x80870eb7	-1.240307e-38
177	0x8082c1fc	-1.2008203e-38
178	0x80990db9	-1.4055754e-38
179	0x808a7270	-1.2714351e-38
180	0x0332f3a6	5.2589193e-37
181	0x04aabe74	4.014171e-36
182	0x02393bd3	1.3608822e-37
183	0x86c30da9	-7.337092e-35
184	0x808b6a9d	-1.280338e-38
185	0x8013f6b9	-1.833382e-39
186	0x805a24f9	-8.278458e-39
187	0x805d9c7e	-8.59684e-39
188	0x802ccb57	-4.113706e-39
189	0x8012bbe7	-1.720446e-39
190	0x80243033	-3.323368e-39
191	0x8016bfdc	-2.089207e-39
192	0x8025cf0e	-3.47219e-39
193	0x8019159f	-2.303644e-39
194	0x80555355	-7.835911e-39
195	0x000bb6e4	1.075799e-39
196	0x800dec74	-1.278685e-39
197	0x800cb263	-1.166019e-39
198	0x89e46fe6	-5.4994232e-33
199	0x8f6ddd67	-1.1727643e-29
200	0x06a0044c	6.0191624e-35
201	0x8d7da763	-7.816313e-31
202	0x05038133	6.1833205e-36
203	0x05d08690	1.9609656e-35
204	0x8ffcaa4e	-2.4914717e-29
205	0x9035b63a	-3.5836338e-29
206	0x983299be	-2.308358e-24
207	0x8063271d	-9.105745e-39
208	0x801cfd60	-2.662288e-39
209	0x002f9734	4.37051e-39
210	0x8074019e	-1.0653498e-38
211	0x802d085a	-4.135593e-39
212	0x80347993	-4.819058e-39
213	0x804d663b	-7.108007e-39
214	0x8038185d	-5.151528e-39
215	0x0004669c	4.04151e-40
216	0x3eaea79f	0.3411226
217	0x3ee01387	0.43764898
218	0x3e8355c8	0.25651383
219	0x3dcbbbd1	0.099479325
220	0x3e0ba863	0.13638453
221	0x3b97b097	0.0046292054
222	0xbd9ca648	-0.07648903
223	0xbdc71a85	-0.09721855
224	0xbcd5076b	-0.026004514
225	0x3e9f5491	0.31119207
226	0x3e9917ae	0.2990088
227	0x3ebf9bb6	0.37423486
228	0xbe6344ef	-0.22194265
229	0xbf41eb79	-0.7574993
230	0xbeb47f86	-0.35253543
231	0x3ac9ed4c	0.0015405803
232	0xbe3aa2e6	-0.18226203
233	0x3e1187f6	0.14212021
234	0xbe753e7e	-0.2394962
235	0xbeed5b65	-0.4635879
236	0xbe8dbafb	-0.27681717
237	0x3bb3e210	0.0054895952
238	0xbe115262	-0.14191583
239	0xbe6021ba	-0.21887866
240	0x3db6f718	0.08933848
241	0xbd9e92ac	-0.07742819
242	0xbdf1c819	-0.11805744
243	0x3e27ec0d	0.1639864
244	0x3db5030b	0.08838471
245	0xbd5dd10e	-0.05415445
246	0x3d8772f2	0.06613721
247	0x3de59640	0.112102985
248	0x3db880a7	0.090089135
249	0xbc5076a1	-0.012723596
250	0xbc34459b	-0.011002923
251	0x3c9bd26f	0.019021241
252	0x3d7cfd3c	0.06176494
253	0x3e413588	0.18868077
254	0x3e487fc7	0.19579993
255	0xbdc8c14d	-0.09802494

conv2.bias f4 [32]
0	0xbeef321b	-0.46717915
1	0xb41e7bc3	-1.4759921e-07
2	0xbed47d95	-0.4150206
3	0x3f0d287a	0.5513989
4	0x3dabb939	0.08384938
5	0x3e5363a5	0.2064348
6	0x9307f4c0	-1.7160067e-27
7	0x3e661a43	0.22470956
8	0xbc9b8c34	-0.018987752
9	0xbd4e7836	-0.05040761
10	0x3eb8e9bf	0.36115834
11	0xb9bff830	-0.00036615273
12	0xbd35b040	-0.04435754
13	0x3ccdfc6a	0.025144774
14	0xbcc9e3df	-0.02464479
15	0x3df56a3e	0.11983155
16	0x3e071c00	0.13194275
17	0x3d2aacbb	0.041668635
18	0xbc3f20c9	-0.011665531
19	0xbe93c76f	-0.28863093
20	0xbec554f7	-0.38541386
21	0x3e900afd	0.28133383
22	0xbd59b0da	-0.053147174
23	0xbe15f81a	-0.14645424
24	0xbdb6f693	-0.08933749
25	0x3ec1a9a6	0.37824744
26	0xbd8fa3cd	-0.070136644
27	0x3bc619ce	0.0060455566
28	0xbd7de753	-0.061988186
29	0xbf2064e0	-0.62653923
30	0x3db28721	0.0871718
31	0xbf28298f	-0.65688413

conv3.weight f4 [64, 32, 3, 3]
0	0x0019df68	2.37603e-39
1	0xa51fb184	-1.3851196e-16
2	0xa74a713d	-2.8094518e-15
3	0xa4f73203	-1.072039e-16
4	0x8025a5a3	-3.457333e-39
5	0x95c0b6ee	-7.7836795e-26
6	0x802cfbfe	-4.13116e-39
7	0x80381767	-5.151183e-39
8	0x009ec885	1.4581941e-38
9	0x008570e1	1.2254614e-38
10	0x005b8b95	8.407103e-39
11	0x0036d913	5.036988e-39
12	0x80812825	-1.186118e-38
13	0x0060b440	8.880869e-39
14	0x8052797f	-7.574095e-39
15	0x805eed5a	-8.717682e-39
16	0x0029e870	3.848638e-39
17	0x800f9049	-1.429292e-39
18	0x99269588	-8.6121965e-24
19	0x96dd8e57	-3.5794305e-25
20	0x801c9e53	-2.62819e-39
21	0xa91dccb7	-3.5038565e-14
22	0xa7e2810f	-6.2867526e-15
23	0x001cafc1	2.634443e-39
24	0x808a5858	-1.270499e-38
25	0x00226e1f	3.161911e-39
26	0x0072b1ac	1.0532983e-38
27	0x803059b0	-4.440278e-39
28	0x804128f0	-5.983993e-39
29	0x805d5adc	-8.573295e-39
30	0x003a08f7	5.329675e-39
31	0x00012fa6	1.08929e-40
32	0x00867962	1.23495e-38
33	0x802eca1c	-4.296936e-39
34	0x80183186	-2.221818e-39
35	0x909c2046	-6.1580876e-29
36	0x8d3b4656	-5.770849e-31
37	0x0020f05e	3.024963e-39
38	0xafad1610	-3.1484193e-10
39	0x8000bd9a	-6.8016e-41
40	0x8014b89e	-1.902938e-39
41	0xb1b8c627	-5.377632e-09
42	0x014eccac	3.798307e-38
43	0x80025bea	-2.16644e-40
44	0x000e46fd	1.311163e-39
45	0x801d7265	-2.704266e-39
46	0x0034ab76	4.836954e-39
47	0x00588c3d	8.131832e-39
48	0x8003acd8	-3.37511e-40
49	0x00501882	7.355631e-39
50	0x8093992b	-1.3554764e-38
51	0x00035688	3.06548e-40
52	0x80724641	-1.0494449e-38
53	0x803fb5c6	-5.850844e-39
54	0x01d358fc	7.7636845e-38
55	0x02524e80	1.5450892e-37
56	0x028dd530	2.0840452e-37
57	0x819bef68	-5.728154e-38
58	0x01f8afdc	9.135316e-38
59	0x82252c00	-1.2134913e-37
60	0x0053a200	7.680461e-39
61	0x825cf740	-1.6234005e-37
62	0x807f3dc8	-1.1685271e-38
63	0x8059058d	-8.17535e-39
64	0x8019583c	-2.32754e-39
65	0x8003e61d	-3.58056e-40
66	0x9aa12861	-6.6653275e-23
67	0x9bc474c5	-3.250094e-22
68	0x00199a7d	2.351307e-39
69	0x001e3887	2.775343e-39
70	0x990f9378	-7.422708e-24
71	0x002e21e1	4.236586e-39
72	0x0006fefb	6.42483e-40
73	0x801a34d1	-2.40667e-39
74	0x004e8463	7.21066e-39
75	0x0ac35233	1.8808737e-32
76	0x80e311ea	-2.0853084e-38
77	0x98f8ac43	-6.4280437e-24
78	0x80359056	-4.919059e-39
79	0x8021be48	-3.098831e-39
80	0x00054004	4.82142e-40
81	0x802ab045	-3.920324e-39
82	0x807a33ff	-1.1222583e-38
83	0x00280b35	3.67744e-39
84	0xa3fafda2	-2.7212472e-17
85	0xa1dcd8e9	-1.4965196e-18
86	0xafdcfe1a	-4.0198317e-10
87	0x00298590	3.813169e-39
88	0x002b40bb	3.972147e-39
89	0x002c7671	4.08325e-39
90	0x802fc41d	-4.38662e-39
91	0x808226a9	-1.1952483e-38
92	0x0033491d	4.709838e-39
93	0x00689a0e	9.606156e-39
94	0x802d064b	-4.134855e-39
95	0x002fde6f	4.396062e-39
96	0x8060309d	-8.833647e-39
97	0x00186bca	2.24272e-39
98	0x80235961	-3.246305e-39
99	0x000d5e78	1.22775e-39
100	0x81abbfb8	-6.309058e-38
101	0x0053a034	7.679816e-39
102	0x02270b56	1.2272476e-37
103	0x000c7f15	1.147614e-39
104	0x0169a6f4	4.2915124e-38
105	0x81343d94	-3.310496e-38
106	0x01a69f9e	6.120781e-38
107	0x00f50eb0	2.2504965e-38
108	0x9c957b6c	-9.891897e-22
109	0xa800e7bb	-7.155676e-15
110	0x00249478	3.359338e-39
111	0xaa856efa	-2.3702551e-13
112	0xb2f9927f	-2.9054034e-08
113	0xa2ae32dc	-4.7216644e-18
114	0x80072bad	-6.58516e-40
115	0x808e0063	-1.3040779e-38
116	0x0006c512	6.21708e-40
117	0x001e9bf6	2.811013e-39
118	0x0006975e	6.05313e-40
119	0x0021f5c5	3.118737e-39
120	0x004df247	7.158246e-39
121	0x0030cfb4	4.482614e-39
122	0x0023b047	3.277479e-39
123	0x084b480e	6.117279e-34
124	0x800f409c	-1.40071e-39
125	0x001b7d81	2.524581e-39
126	0x00073cdf	6.64685e-40
127	0x004fc119	7.324275e-39
128	0x007dbc30	1.1546946e-38
129	0x003347a6	4.709313e-39
130	0x0004158e	3.75074e-40
131	0x00008590	4.7913e-41
132	0x800f4c83	-1.40498e-39
133	0x8045b70c	-6.402314e-39
134	0x00010c8f	9.634e-41
135	0x004c5239	7.008994e-39
136	0x00365b65	4.991903e-39
137	0x803565ad	-4.903756e-39
138	0x802a72fe	-3.898342e-39
139	0x801883bc	-2.251309e-39
140	0x0006158d	5.58744e-40
141	0x802bc3f7	-4.019225e-39
142	0x805b7616	-8.399391e-39
143	0x805fe03b	-8.804811e-39
144	0xa3c6e2ef	-2.1563313e-17
145	0x80071b1d	-6.52575e-40
146	0xa55d3fe6	-1.9190344e-16
147	0xace74fc6	-6.5742715e-12
148	0x807c1bce	-1.1397576e-38
149	0x001e2ddd	2.771518e-39
150	0x8006e9d5	-6.34896e-40
151	0x006b2045	9.837974e-39
152	0x0039d4af	5.31092e-39
153	0xb07340ff	-8.849525e-10
154	0x002e2e45	4.241031e-39
155	0x807e0d61	-1.1576072e-38
156	0xb8a48d19	-7.846411e-05
157	0xb3e668c0	-1.07292635e-07
158	0x929b47f8	-9.799617e-28
159	0x007313fc	1.0568251e-38
160	0x0af6212f	2.370142e-32
161	0x006197e3	8.96253e-39
162	0x800c55aa	-1.132756e-39
163	0x00546f5f	7.754134e-39
164	0x808143c6	-1.1871092e-38
165	0x8099f59a	-1.4138936e-38
166	0x0023af84	3.277206e-39
167	0x80407a25	-5.921289e-39
168	0x002277fb	3.165448e-39
169	0x802face4	-4.37829e-39
170	0x003319f5	4.692922e-39
171	0xa73a61b5	-2.5865652e-15
172	0xa233a187	-2.4344535e-18
173	0xa9b409c9	-7.995303e-14
174	0xa29edd29	-4.306015e-18
175	0x0b017659	2.493353e-32
176	0xa9aedae3	-7.765123e-14
177	0x0ab693bd	1.7581535e-32
178	0x805abd18	-8.333029e-39
179	0x83a1ab34	-9.502036e-37
180	0xb1a1e6c7	-4.711953e-09
181	0xa79ad0d6	-4.2970007e-15
182	0x80532093	-7.634032e-39
183	0xa8fb0f88	-2.7873334e-14
184	0x90ca0fa0	-7.9699026e-29
185	0x0010c9f9	1.541822e-39
186	0x0022353d	3.141505e-39
187	0x00712ff9	1.039462e-38
188	0x8053ca62	-7.694947e-39
189	0x8068fa6e	-9.640729e-39
190	0x002399e3	3.269447e-39
191	0x0055aa91	7.867205e-39
192	0x007c4701	1.1413073e-38
193	0x0040d8cc	5.955244e-39
194	0x0004d3ee	4.43368e-40
195	0x8019f19b	-2.382559e-39
196	0x8096c5f6	-1.384634e-38
197	0x0015f24c	2.015465e-39
198	0x01414134	3.5495282e-38
199	0x016d5704	4.3592456e-38
200	0x0223b62b	1.2027628e-37
201	0x8124f68c	-3.0298931e-38
202	0x82bfb586	-2.8169117e-37
203	0x8063a170	-9.149627e-39
204	0x82232a19	-1.198743e-37
205	0x805a89d0	-8.314632e-39
206	0x000d83ab	1.241095e-39
207	0xb5364be8	-6.791074e-07
208	0xb122c831	-2.3687898e-09
209	0xa1d6685a	-1.4528826e-18
210	0xb7871d6f	-1.610696e-05
211	0xb59f1e76	-1.1855288e-06
212	0xa0b18fa3	-3.0080017e-19
213	0x0040aac1	5.938727e-39
214	0x002cf0e8	4.127183e-39
215	0x8013bddc	-1.812983e-39
216	0x8041986c	-6.023986e-39
217	0x803c87b9	-5.558818e-39
218	0x808dac6c	-1.3010658e-38
219	0xab384069	-6.545932e-13
220	0x95c4a106	-7.941782e-26
221	0x80015f25	-1.25967e-40
222	0x004f88a3	7.30402e-39
223	0x804f128d	-7.261659e-39
224	0x000752c7	6.72543e-40
225	0x800829da	-7.49697e-40
226	0x004b4cd1	6.915219e-39
227	0x00263328	3.5081e-39
228	0x003242dc	4.61576e-39
229	0x003b2eab	5.435036e-39
230	0x0009c6e8	8.97874e-40
231	0x003689a9	5.0085e-39
232	0x0084bb06	1.2189377e-38
233	0x801f1f82	-2.858203e-39
234	0xa740cbb0	-2.6755772e-15
235	0x80828648	-1.1986786e-38
236	0x002f632f	4.351849e-39
237	0x800f08c3	-1.380676e-39
238	0x9109860c	-1.0848701e-28
239	0xad6ef768	-1.3583669e-11
240	0xa7ded729	-6.1850655e-15
241	0x002a2e88	3.873783e-39
242	0x80260850	-3.492731e-39
243	0x0040bc47	5.945013e-39
244	0x8065d71e	-9.352555e-39
245	0x8021f4cb	-3.118387e-39
246	0x0058984d	8.136159e-39
247	0x0109bd06	2.5298544e-38
248	0x94eb6768	-2.3769723e-26
249	0x8011eb2d	-1.645569e-39
250	0x0039a739	5.294611e-39
251	0x0022c1fd	3.191997e-39
252	0xacbd50ba	-5.3806655e-12
253	0x9665c9ed	-1.8562189e-25
254	0x00283cb5	3.695197e-39
255	0x002718be	3.59046e-39

conv3.bias f4 [64]
0	0xaf06a459	-1.2245617e-10
1	0xbd7e5971	-0.062097017
2	0x93361029	-2.2979597e-27
3	0x3c8e0ede	0.017341074
4	0x3e9fe245	0.31227317
5	0xbbf4197a	-0.007449326
6	0x8dca6bc0	-1.2475151e-30
7	0x3e87fea4	0.26561463
8	0x3e9917e2	0.29901034
9	0xb52a40a7	-6.3424017e-07
10	0xbeec6084	-0.46167386
11	0x3dc5eef9	0.09664721
12	0xbc32b6a7	-0.0109078055
13	0x3e772c71	0.24138047
14	0x3f6e6ead	0.9313763
15	0x3f0babc7	0.54558986
16	0xbd6991a4	-0.05702366
17	0xbd78dc4f	-0.060756978
18	0x3dce2fbf	0.100677006
19	0xbe68664a	-0.2269527
20	0xbd625eb0	-0.055266082
21	0x3f728e17	0.9474806
22	0xbde27717	-0.11057871
23	0xba2d72bb	-0.00066165224
24	0xbe143758	-0.14474237
25	0xbd57b526	-0.05266299
26	0xbe6f2747	-0.23354827
27	0xbf03e406	-0.5151981
28	0xbc9d208c	-0.019180559
29	0xbda18030	-0.07885778
30	0x3df2a0fa	0.1184711
31	0x3f6776fa	0.9041592
32	0xbd63a214	-0.05557449
33	0xbeee38fc	-0.4652785
34	0xbdf6bc09	-0.120475836
35	0xbf0ba738	-0.5455203
36	0xbba15d14	-0.004924426
37	0xb2095b88	-7.995261e-09
38	0x3f61afd3	0.8815891
39	0xbbf3c43c	-0.0074391644
40	0x3efa9384	0.4894067
41	0xbe95d779	-0.29265955
42	0xbeefcb7e	-0.4683494
43	0x3ddd3c92	0.108025685
44	0xbc92b539	-0.01790868
45	0xaa5cfa67	-1.9626801e-13
46	0xbd47afca	-0.04875163
47	0xbe8f2cb1	-0.27963784
48	0xbdb4f1c6	-0.08835177
49	0xbd9ffaa8	-0.07811481
50	0x3ebbad37	0.3665559
51	0xbc8b73b7	-0.01702295
52	0x3f317671	0.6932135
53	0xbd93ed07	-0.07222944
54	0x3dee28fd	0.11628912
55	0x3e93edfe	0.2889251
56	0xb158eb75	-3.1565979e-09
57	0xbe61cdab	-0.22051112
58	0xbe7f5b27	-0.24937116
59	0xbe33a68d	-0.17544003
60	0xb252d7c8	-1.2272672e-08
61	0x3f9181d2	1.1367743
62	0xbe659fc4	-0.22424227
63	0x3d189d1c	0.037259206

fc1.weight f4 [128, 1024]
0	0x8220f013	-1.1823841e-37
1	0x021fb877	1.1734414e-37
2	0x01a472f4	6.0409035e-38
3	0x81db9608	-8.066318e-38
4	0x81086b90	-2.5056427e-38
5	0x01b03a1e	6.4735583e-38
6	0x020868f7	1.0021825e-37
7	0x01affc82	6.464718e-38
8	0x02176aad	1.1124342e-37
9	0x003c3788	5.53005e-39
10	0x01af18f8	6.4320676e-38
11	0x8254fbe5	-1.564759e-37
12	0x81127410	-2.6899236e-38
13	0x807c3f65	-1.1410343e-38
14	0x82232784	-1.1986689e-37
15	0x012a95d0	3.1331554e-38
16	0x3aabc765	0.0013105689
17	0x39832bca	0.00025018892
18	0x3a5be480	0.0008388236
19	0x3aa40524	0.0012513739
20	0x3a1bcc42	0.00059432175
21	0x3b59dc6d	0.0033242956
22	0x3b90cbbb	0.004418818
23	0x3b9195b0	0.004442893
24	0x3b7f11e7	0.0038920583
25	0x3bd40b61	0.006471083
26	0x3be25d04	0.006908061
27	0x3b4d0cd8	0.0031288173
28	0x3c267e69	0.0101619745
29	0x3c4d4c34	0.012530375
30	0x3bfd8604	0.007736923
31	0x3b53b72c	0.0032305224
32	0x00726902	1.0506916e-38
33	0x0093e5d1	1.358226e-38
34	0x00904287	1.3248177e-38
35	0x0096abf9	1.3837017e-38
36	0x00766ec8	1.087633e-38
37	0x008c7c04	1.2901458e-38
38	0x0088d352	1.2565435e-38
39	0x008c184f	1.286569e-38
40	0x0086e0a7	1.2386547e-38
41	0x008ea5e8	1.3100156e-38
42	0x0096b6d6	1.3840914e-38
43	0x0094bbbc	1.3659e-38
44	0x00921f3a	1.3419184e-38
45	0x008b5f36	1.2799289e-38
46	0x0090ab20	1.32857e-38
47	0x00874a12	1.2424363e-38
48	0xbe8a96d2	-0.27068192
49	0x3e9a6698	0.30156398
50	0x3e2a00fb	0.16601937
51	0x3d9a9dba	0.07549615
52	0xbde1bb76	-0.110220835
53	0xbe2173c7	-0.15766822
54	0x3b93da02	0.0045120725
55	0xbd9c7020	-0.07638574
56	0x3dc85176	0.097811624
57	0xbddd25bc	-0.10798213
58	0xbdc9a589	-0.098460265
59	0x3ccfc6b2	0.0253633
60	0x3e2c0b27	0.1680113
61	0xbdf01728	-0.11723167
62	0x3d6fbf00	0.05853176
63	0xbd2f86d0	-0.042853177
64	0x3c0cacdc	0.008586135
65	0xbdf37940	-0.11888361
66	0xbe7251c2	-0.23664
67	0xbe9eb899	-0.31000212
68	0xbee7fd47	-0.45310423
69	0xbefbd6fd	-0.4918746
70	0xbd3cf6ee	-0.046133928
71	0xbe956c45	-0.29184166
72	0xbe531263	-0.20612483
73	0xbe52d0ed	-0.20587511
74	0xbe3db82b	-0.18527286
75	0xbeaa8df5	-0.3331143
76	0x3e91fde1	0.28514007
77	0x3dfff468	0.12497789
78	0x3f32f052	0.6989795
79	0x3e72ea70	0.23722243
80	0x2d9bba93	1.7704315e-11
81	0x28ec1c12	2.6213437e-14
82	0x9821f3c0	-2.0931825e-24
83	0x2169265a	7.899423e-19
84	0x2bb8df94	1.3136042e-12
85	0x29b1d1e6	7.8967906e-14
86	0xa59bd98e	-2.7035635e-16
87	0x23c0a583	2.0886779e-17
88	0x312ae0d8	2.4866065e-09
89	0x2f50ce3e	1.8990762e-10
90	0x2fae4225	3.1697414e-10
91	0x2ee3fc33	1.03675644e-10
92	0x2e8665dd	6.111709e-11
93	0x2b165dbd	5.3420793e-13
94	0x2a87cfec	2.4125092e-13
95	0x22131b35	1.9936618e-18
96	0x00911fc9	1.332755e-38
97	0x00951022	1.3689276e-38
98	0x00847416	1.2163929e-38
99	0x008d6ddd	1.2988216e-38
100	0x009047fc	1.3250135e-38
101	0x00847757	1.2165097e-38
102	0x00449646	6.298722e-39
103	0x008f38e1	1.315288e-38
104	0x00631610	9.099629e-39
105	0x005b5f71	8.391268e-39
106	0x00616742	8.945085e-39
107	0x007c31b0	1.1405426e-38
108	0x0091991b	1.3371071e-38
109	0x802ef68c	-4.312877e-39
110	0x0038ef0a	5.228539e-39
111	0x00727968	1.0512799e-38
112	0xbe77c404	-0.24195868
113	0x3e339091	0.17535616
114	0x3ccc68c7	0.024952305
115	0xbe7a75e4	-0.24459034
116	0xbddc9b6e	-0.10771833
117	0xbe7b93dd	-0.24568124
118	0xbee789e6	-0.45222396
119	0xbed35517	-0.41275856
120	0x3e0d4c9a	0.13798752
121	0xbedbf645	-0.42961326
122	0xbd951594	-0.07279506
123	0xbef66613	-0.4812475
124	0x3db2c67f	0.087292664
125	0xbd39d960	-0.04537332
126	0xbe286470	-0.16444564
127	0xbe31d745	-0.17367275
128	0xbeb6795a	-0.3563946
129	0xbee08408	-0.43850732
130	0x3cda501f	0.026649533
131	0xbe1ca5a9	-0.1529757
132	0xbdfde938	-0.123979986
133	0xbeee63cd	-0.46560517
134	0x3e27d60f	0.1639025
135	0x3d4d97da	0.050193645
136	0x3ed3262c	0.4124006
137	0x3e1b1f8d	0.15148754
138	0xbe281796	-0.16415247
139	0xbc0e661a	-0.008691335
140	0x3e8aee62	0.27134997
141	0x3e05356f	0.13008665
142	0xbe4f641b	-0.20253031
143	0x3de647f2	0.11244191
144	0x804caafd	-7.040837e-39
145	0x0006a141	6.0886e-40
146	0x006d3204	1.0028011e-38
147	0x002b3560	3.968074e-39
148	0x0001b656	1.57245e-40
149	0x8020ace7	-3.000762e-39
150	0x005c892b	8.498072e-39
151	0x001dc3a0	2.733406e-39
152	0x801b3f7b	-2.502331e-39
153	0x80372927	-5.065715e-39
154	0x8065a8a8	-9.335888e-39
155	0x00836d26	1.2069605e-38
156	0x000cf4c0	1.189826e-39
157	0x0024a770	3.366143e-39
158	0x80580c66	-8.085971e-39
159	0x802f38fc	-4.33671e-39
160	0x3d9b0301	0.07568932
161	0xbdb3dc94	-0.08782306
162	0xbddf39e7	-0.10899716
163	0xbeea6be7	-0.45785448
164	0x3d28c0c9	0.04119948
165	0xbe8ee71a	-0.27910691
166	0xbf1a5f96	-0.603021
167	0xbee271db	-0.4422749
168	0xbe11a6c2	-0.1422377
169	0x3e9df67d	0.30852118
170	0x3efe5350	0.49672937
171	0x3db03e15	0.08605591
172	0xbe8f98f2	-0.28046376
173	0x3d358d40	0.04432416
174	0xbeb544c9	-0.3540404
175	0xbe9767e3	-0.29571447
176	0x3d648b67	0.055797007
177	0x3e3009f6	0.171913
178	0x3e3e8616	0.18605837
179	0x3d5e6938	0.054299563
180	0xbe1d860d	-0.15383168
181	0x3e4f811d	0.20264097
182	0xbe2bf7fe	-0.1679382
183	0x3de9f7fe	0.11424254
184	0x3e0e0a77	0.1387118
185	0x3bedc6d5	0.0072563686
186	0xbc0a6fcd	-0.008449507
187	0xbe3f988f	-0.1871054
188	0xbe32244a	-0.17396656
189	0xbc0d8d17	-0.0086395955
190	0xbecfa364	-0.40554345
191	0xbe965475	-0.2936131
192	0x3ab91363	0.0014120158
193	0x3ac2bc7a	0.0014857196
194	0x3a44c7d8	0.00075065857
195	0x3a07cf6e	0.0005180751
196	0x3ad59ed0	0.001629794
197	0x3b0d14c0	0.002152726
198	0x3aceaefe	0.0015768704
199	0x3aa5d831	0.0012652931
200	0x3b5c9a35	0.003366125
201	0x3b55e170	0.0032635592
202	0x3b355cac	0.0027673645
203	0x3b3a106b	0.0028391134
204	0x3b66fdf9	0.0035246594
205	0x3b7464af	0.0037291457
206	0x3b06957a	0.0020535872
207	0x3ac1c79c	0.001478422
208	0x3e43028b	0.19043939
209	0x3e828a6b	0.2549623
210	0x3e4ea698	0.20180738
211	0x3dacfa86	0.08446221
212	0x3da49425	0.08036069
213	0xbe2d847d	-0.16945072
214	0xbda03f95	-0.07824627
215	0xbdf359b1	-0.11882342
216	0xbc83b94f	-0.016079573
217	0xbe3ba340	-0.18323994
218	0xbef3550a	-0.47525817
219	0xbe5641e3	-0.20923571
220	0x3ece74e2	0.4032355
221	0x3e21290b	0.15738313
222	0xbdd80c50	-0.105492234
223	0xbeab5e59	-0.3347042
224	0x3c07bf65	0.008285378
225	0xbed4531e	-0.41469663
226	0xbf18f7fa	-0.5975338
227	0xbe27d871	-0.1639116
228	0xbf0bfb37	-0.546802
229	0x3eda16e4	0.4259559
230	0xbcaf4bc6	-0.021398436
231	0xbf58edeb	-0.84738034
232	0x3cb750cb	0.022377392
233	0x3ebd3751	0.36956266
234	0x3cf9dc2f	0.0305005
235	0xbe1465ef	-0.1449201
236	0x3e31730f	0.17329048
237	0x3e27ffec	0.1640622
238	0x3e7d18e9	0.24716534
239	0x3d186a02	0.037210472
240	0xbdd21888	-0.10258585
241	0xbd4210f5	-0.047379453
242	0x3df3e999	0.119097896
243	0xbe4f4738	-0.20242012
244	0xbe1d17b0	-0.15341067
245	0xbe86a4d4	-0.2629763
246	0x3d9b49d4	0.07582441
247	0xbeddaf0e	-0.4329762
248	0x3e0ad876	0.13559136
249	0xbd831b77	-0.06401723
250	0x3e434cdc	0.19072288
251	0x3e9292a5	0.28627506
252	0x3e2cdcf9	0.1688117
253	0xbaeb8db0	-0.0017971303
254	0xbe967dd2	-0.29392868
255	0x3dc456e4	0.095868856

fc1.bias f4 [128]
0	0xbdd29eea	-0.10284217
1	0x8056863d	-7.946008e-39
2	0x3d9e7766	0.07737617
3	0xbc5c8c6b	-0.013461213
4	0xbdeb5601	-0.11491013
5	0xb898b64e	-7.281882e-05
6	0xbe78661a	-0.24257699
7	0x3e51e308	0.20496762
8	0xbecab304	-0.39589703
9	0x3e3bb709	0.18331541
10	0xba20c24c	-0.0006132468
11	0xbd3a692a	-0.04551045
12	0xbdd66dd9	-0.104701705
13	0xbd4118fa	-0.04714296
14	0xbcd003f8	-0.025392517
15	0xbd46fcd1	-0.04858095
16	0xbdba88ac	-0.09108099
17	0xbe4b5fde	-0.19860789
18	0xbe921317	-0.2853019
19	0xbce8fc64	-0.028440662
20	0xb9407d3e	-0.00018357203
21	0x804b7e4f	-6.932973e-39
22	0xbd477eca	-0.0487049
23	0xbd225078	-0.039627522
24	0xbd98fd9e	-0.07470249
25	0x3eb4665d	0.35234347
26	0xbd866a77	-0.06563275
27	0xbb57ea47	-0.0032946037
28	0xbdb1e13a	-0.08685537
29	0xbe1b3a4c	-0.15158957
30	0xbe03cdb3	-0.12871437
31	0x0289b2ca	2.023296e-37
32	0xa000eedb	-1.0921052e-19
33	0xbe393554	-0.1808675
34	0xbe654b9a	-0.22392121
35	0x3ea8f192	0.32996804
36	0xb9898f04	-0.0002623723
37	0xbd44ee2f	-0.048078712
38	0xbe35ff8e	-0.17773268
39	0xbe106363	-0.14100413
40	0x3d06f037	0.03294393
41	0x3c109339	0.008824163
42	0xbd6c14ee	-0.057637148
43	0xbd8b5e36	-0.06805079
44	0xbcf9aca4	-0.03047783
45	0xbd81d3b5	-0.06339208
46	0x3e2b6620	0.16738176
47	0x011e1802	2.9037242e-38
48	0xbdd37d0b	-0.103265844
49	0x3f16653e	0.58748233
50	0x3f3e3cee	0.7431172
51	0xbca00a5f	-0.019536195
52	0xbca616ee	-0.020274606
53	0xbefdb934	-0.4955536
54	0xbe5d3cf5	-0.21605285
55	0xbe8315f8	-0.25602698
56	0xbe6097a1	-0.21932842
57	0xbdbf4de5	-0.09341029
58	0xbdb49c5f	-0.08818888
59	0x3ef331fe	0.4749908
60	0xbdeaa1ae	-0.11456619
61	0xbdd21b84	-0.102591544
62	0xbe9538e7	-0.29144976
63	0xbeee6bad	-0.46566525
64	0xbdc4a8c2	-0.096025005
65	0xbe7f20ff	-0.24914931
66	0xbe155322	-0.14582494
67	0x3e10f280	0.14155006
68	0xbdb402a7	-0.087895684
69	0xbc397e85	-0.0113216685
70	0xa69b15df	-1.0761214e-15
71	0xbe78a3e2	-0.24281266
72	0xbe606885	-0.21914871
73	0xbda131e8	-0.07870847
74	0x155e06d4	4.483793e-26
75	0xb93b271d	-0.0001784828
76	0xbeb8d903	-0.36103067
77	0xbb5d373a	-0.0033754841
78	0xbd86054a	-0.065439776
79	0xbc15c8dd	-0.009142128
80	0xbcc2727a	-0.023736227
81	0xbe909a20	-0.28242588
82	0xbe2daa61	-0.16959526
83	0x3e6b0af6	0.229534
84	0xbdb87d71	-0.09008301
85	0xbe080a46	-0.13285169
86	0x149307e2	1.4846316e-26
87	0x3dbf43b0	0.09339082
88	0xbd6f28f8	-0.05838868
89	0xbdc8d448	-0.098061144
90	0x3e0bbfb8	0.13647354
91	0xbd10d2f9	-0.03535745
92	0x3ed4533e	0.4146976
93	0xbe290903	-0.16507344
94	0x3e932989	0.28742626
95	0x3dc24d04	0.09487346
96	0xbe35a057	-0.17736946
97	0xbd65dc65	-0.056118388
98	0xb817b941	-3.6173737e-05
99	0xbdb896f2	-0.090131655
100	0xbe41476a	-0.18874899
101	0xbc9bf164	-0.019036002
102	0xbe816a14	-0.25276244
103	0xbd16b721	-0.03679574
104	0xbdc1106f	-0.094269626
105	0xbdfb00a5	-0.12255982
106	0xbd7fa930	-0.06241721
107	0x3e21f506	0.15816125
108	0xbdc98565	-0.09839896
109	0xbddb07a6	-0.10694818
110	0xbd89a168	-0.06720239
111	0xbdf8e5d6	-0.12153213
112	0x3e0c58b2	0.1370571
113	0x3f038bdf	0.513853
114	0xbd90f4ed	-0.07077966
115	0x3d936b2b	0.07198175
116	0x3de3c113	0.1112081
117	0xbe17d3df	-0.14826916
118	0xbf05326e	-0.52030075
119	0xbd447f30	-0.047972858
120	0xbe0d2544	-0.13783747
121	0x3ed780f1	0.42090562
122	0xbdef161b	-0.11674138
123	0xbd4cca2b	-0.04999749
124	0x3eaa4894	0.33258498
125	0xbdafe967	-0.0858944
126	0x95d79fbf	-8.7089843e-26
127	0xbe388bda	-0.18022099

fc2.weight f4 [128, 128]
0	0xbe25119f	-0.16120003
1	0x002b828c	3.995758e-39
2	0xbe3b0d5b	-0.18266813
3	0xb572bb3d	-9.042449e-07
4	0x3da80cf3	0.08205595
5	0xbb573017	-0.003283506
6	0x3d495715	0.049155314
7	0xbe66dda3	-0.22545485
8	0x3d6da21a	0.05801592
9	0x3ea973cc	0.33096159
10	0x0042952a	6.114653e-39
11	0x3b00ba32	0.001964223
12	0x3cfa5c43	0.030561572
13	0x3d3b0441	0.045658354
14	0x3cfe0650	0.03100887
15	0x3cd3a8d9	0.025837349
16	0xbd0cdb4f	-0.034388836
17	0xbe2e192b	-0.17001788
18	0x3dd132fa	0.10214801
19	0xbdd039b5	-0.10167257
20	0x00115d3c	1.59465e-39
21	0x808ba4f8	-1.2824314e-38
22	0xb8917200	-6.935373e-05
23	0x108961b1	5.418749e-29
24	0x3dc01a4d	0.093800165
25	0x3d3fdf3d	0.046843756
26	0x3d6a33bf	0.057178255
27	0xb4df9acd	-4.164962e-07
28	0x3d8b319f	0.06796574
29	0xbd006352	-0.03134472
30	0x3d84bd1b	0.064813815
31	0x003d6100	5.636762e-39
32	0x80432439	-6.165972e-39
33	0x3dfdc6c7	0.123914294
34	0x3b867b0a	0.004104023
35	0xbd81e867	-0.06343155
36	0x0042e96d	6.14488e-39
37	0x3da4274c	0.08015308
38	0xbd001f2d	-0.03127973
39	0xbd7d2dcc	-0.061811253
40	0xbe3ea45a	-0.18617383
41	0x3ce037f3	0.027370429
42	0xbc2fff67	-0.010742045
43	0x3d3fdd18	0.04684171
44	0x3cb27a53	0.021786844
45	0x3c9e8949	0.019352572
46	0xbcaad182	-0.020851854
47	0x808e5b26	-1.3073338e-38
48	0x3801e2aa	3.0967094e-05
49	0x3d84ac2a	0.0647815
50	0xbd140fab	-0.036147755
51	0x3af28b54	0.0018504658
52	0x3c1de092	0.009636061
53	0x3cea2841	0.028583648
54	0x3e0d9d60	0.13829565
55	0x3d2d057a	0.04224155
56	0xbe7751e8	-0.24152339
57	0x3dcecc15	0.10097519
58	0xbb8e4b35	-0.0043424615
59	0xbe0cb47f	-0.13740729
60	0x325a6395	1.2711912e-08
61	0xbc4c5c9b	-0.012473251
62	0x3d1e07ca	0.038581647
63	0x3d920015	0.07128922
64	0x3cf79af9	0.030225264
65	0x3d9aa339	0.075506635
66	0x3cd9044d	0.026491309
67	0xbe5f3322	-0.2179685
68	0xbcb4479e	-0.022006806
69	0x39be8be2	0.00036343845
70	0xab81f4b4	-9.23392e-13
71	0x3dcdcb67	0.100485615
72	0x3d8b8f78	0.06814474
73	0x3d2568e2	0.040383227
74	0x804e6651	-7.199873e-39
75	0x1f262548	3.5182706e-20
76	0x3dd8507b	0.105622254
77	0xac7d13e6	-3.5964508e-12
78	0x3d9f2dd4	0.07772413
79	0x3dbea726	0.09309225
80	0xbda52553	-0.0806376
81	0xbb286cb8	-0.0025699567
82	0xbcde1cf3	-0.027113413
83	0xbe1ab7f9	-0.15109242
84	0x3cbd8b69	0.023137765
85	0x3eda3289	0.4261668
86	0x805b2741	-8.371112e-39
87	0x3d83a7c2	0.06428482
88	0x2fee034a	4.3294285e-10
89	0x3d424481	0.04742861
90	0xbdf720f9	-0.12066836
91	0xbc83fc70	-0.016111583
92	0x3e9d97f4	0.30779994
93	0xbc24cd1a	-0.010058666
94	0xbecb6d53	-0.39731845
95	0xbe1e95ba	-0.15486804
96	0x3e1cea6c	0.153238
97	0x3d5cf7f2	0.053947397
98	0x2524c6ec	1.429213e-16
99	0x3bd147f5	0.006386752
100	0x3d90a497	0.07062643
101	0x3e157e9a	0.14599076
102	0x3cbac833	0.02280054
103	0x31021c5a	1.8933606e-09
104	0xbd166e1f	-0.036726113
105	0xbd300915	-0.04297741
106	0x3d18864b	0.037237447
107	0x3a7986b3	0.0009518668
108	0x3d3a4fc0	0.04548621
109	0x3cc67b19	0.02422862
110	0x3c8b9090	0.017036706
111	0x3e2e3056	0.17010626
112	0xbe824d33	-0.25449523
113	0xbd897d8a	-0.06713398
114	0xbc01436a	-0.007889608
115	0x3e4b5f10	0.19860482
116	0xbd12baa7	-0.035822537
117	0xbc40d3dc	-0.011769261
118	0xbcc45cbc	-0.02397
119	0x3d27be72	0.040953107
120	0x3bddd358	0.006769579
121	0xbd1b0bed	-0.03785317
122	0x3d15636b	0.036471765
123	0x375c6961	1.3137557e-05
124	0xbdd3aa08	-0.10335165
125	0x3d65d85a	0.056114532
126	0x00772bf4	1.0944191e-38
127	0x3bb9f7c2	0.005675287
128	0x3c87d9f8	0.016583428
129	0x005b23ef	8.36992e-39
130	0xbd727995	-0.05919798
131	0x324ec837	1.2036302e-08
132	0x3c159ef2	0.009132134
133	0xb38bfcb4	-6.518658e-08
134	0xbcaf2fe3	-0.021385139
135	0x3d3990a8	0.04530397
136	0x3de30d10	0.11086476
137	0x3cede4cc	0.029039763
138	0xb6d6d5af	-6.402573e-06
139	0xbb2a14a7	-0.002595225
140	0x3befec95	0.007321904
141	0x3d88a017	0.0667116
142	0xbb1d6d59	-0.0024021475
143	0x3ca5a83b	0.02022182
144	0x3d88620e	0.066593274
145	0xbe1a4fdd	-0.15069528
146	0xbd931db6	-0.07183401
147	0xbe00d8aa	-0.12582651
148	0xba1f7f95	-0.000608438
149	0x004f26ee	7.26897e-39
150	0x39378240	0.00017500762
151	0x3cf26052	0.029586945
152	0x3da2832c	0.07935175
153	0xbda53f6b	-0.08068737
154	0xbc091293	-0.008366245
155	0x3806406d	3.200809e-05
156	0x3d345b48	0.044032365
157	0xbc48f58f	-0.012265577
158	0x3c6dad6c	0.014506679
159	0x81ba60d4	-6.846455e-38
160	0x8040d5ea	-5.95421e-39
161	0x3c56865d	0.013093558
162	0xbcfef6a6	-0.03112347
163	0xbd850070	-0.06494224
164	0x3bfd093a	0.007722047
165	0x1df4ee32	6.483255e-21
166	0xbd177d14	-0.03698452
167	0xbd5064cc	-0.050877377
168	0x3d814334	0.06311646
169	0xbd75e4db	-0.060032707
170	0xbc4d577b	-0.012533064
171	0x302b16e5	6.224197e-10
172	0x3c52d648	0.012868471
173	0x3d471ca8	0.048611313
174	0xbddade8d	-0.106869794
175	0x8087ca8d	-1.2470454e-38
176	0xae966058	-6.8383244e-11
177	0x3d9a6e90	0.075406194
178	0xbe565828	-0.20932066
179	0x375ec537	1.3278149e-05
180	0x80649620	-9.237404e-39
181	0xbdc705ad	-0.097178794
182	0xbc730a3f	-0.014833986
183	0x3cfc2681	0.030780079
184	0x3d10db39	0.035365317
185	0x3c0d7580	0.008633971
186	0x3b8679dc	0.0041038822
187	0x3e829ee0	0.25511837
188	0x807c592c	-1.141959e-38
189	0x3d7bb192	0.06144864
190	0x3e300d29	0.1719252
191	0x3ba9e2d5	0.005184511
192	0x3d59c7a1	0.053168897
193	0x3abd4748	0.0014440799
194	0x3d40b275	0.04704519
195	0xbde7080c	-0.11280832
196	0xbafb1905	-0.0019157237
197	0xa09b870b	-2.6347385e-19
198	0x802772dd	-3.62279e-39
199	0x3db1c82e	0.08680759
200	0xbc2bf911	-0.010496394
201	0xbd61c667	-0.05512085
202	0x80407521	-5.91949e-39
203	0x29b01dcd	7.82114e-14
204	0x3d5b39c9	0.053521905
205	0x337f4365	5.943311e-08
206	0xbd33dcdc	-0.0439118
207	0x3dd6c269	0.104862995
208	0xbe4d2713	-0.20034437
209	0x3d756bb6	0.059917174
210	0x3d620141	0.055176977
211	0x3e656d50	0.2240498
212	0xbc411833	-0.011785555
213	0x3b64ff34	0.0034942152
214	0x0194e501	5.469522e-38
215	0xbceba533	-0.028765297
216	0xabe9daf0	-1.6616413e-12
217	0x3ca2eed4	0.019889273
218	0xbe55af17	-0.20867573
219	0xbb524a84	-0.0032087872
220	0xbe104c36	-0.14091572
221	0xbd700221	-0.05859578
222	0xbc62be57	-0.013839326
223	0xbdb1e77c	-0.0868673
224	0xbca08cd1	-0.019598396
225	0x3e2984cc	0.16554564
226	0xa993b375	-6.559242e-14
227	0x804f2a29	-7.270128e-39
228	0xbbb91318	-0.005648028
229	0xbd6dd93a	-0.05806849
230	0x3ce07241	0.02739823
231	0x3be3e26b	0.0069544814
232	0xbd3c308a	-0.045944728
233	0xbd8a38db	-0.067491256
234	0x002a846f	3.904599e-39
235	0xbcf5caaf	-0.030003874
236	0x3c9abbac	0.018888317
237	0xbbdd2882	-0.0067492137
238	0x3cee9c07	0.029127134
239	0x3dc38840	0.09547472
240	0xbdcac58b	-0.099009596
241	0xbe09da48	-0.13462174
242	0x0081e041	1.1927226e-38
243	0xbdd535ba	-0.10410638
244	0xbbec0643	-0.007202895
245	0x3c2a459a	0.010392571
246	0x3d95c594	0.07313076
247	0x3c1e5b86	0.009665376
248	0xbcbb4b4a	-0.022863049
249	0xbe14965b	-0.14510481
250	0xbb20e593	-0.00245509
251	0x8016224f	-2.032689e-39
252	0x3e02eecf	0.12786411
253	0x3cd742ae	0.026276913
254	0x0093de68	1.3579602e-38
255	0xbc11487b	-0.008867378

fc2.bias f4 [128]
0	0xbeb091a5	-0.34486118
1	0xbe882400	-0.26589966
2	0xbb9ef6f7	-0.004851218
3	0xbddcddd7	-0.107845
4	0x3e540e50	0.20708585
5	0xbc8740b5	-0.016510347
6	0x3f18b265	0.5964721
7	0x3ea44995	0.3208739
8	0xbda8291c	-0.08210966
9	0xbe7f3386	-0.24921998
10	0xbb8a32d4	-0.004217485
11	0xbe831dc9	-0.25608662
12	0xbe8db9e4	-0.27680886
13	0xbe4e35ff	-0.20137785
14	0x3e6bb9be	0.23020074
15	0xbe8b9a21	-0.2726603
16	0xbeca2419	-0.39480665
17	0xbca40c2b	-0.020025333
18	0xbed01302	-0.40639502
19	0x3e74af10	0.23894906
20	0xbe23abc9	-0.159835
21	0xbe854517	-0.26029274
22	0xbec8512d	-0.39124432
23	0xbddca351	-0.10773338
24	0xbf1af304	-0.6052706
25	0xbe162c34	-0.146653
26	0xbe949a66	-0.29024047
27	0xbd39e123	-0.045380723
28	0xbe42a04d	-0.19006462
29	0xbdf5ecb8	-0.12008041
30	0x3ec9b0a3	0.39392576
31	0xbdf025cf	-0.117259614
32	0xbf0178c4	-0.505749
33	0xb3c8a182	-9.342604e-08
34	0xbe257f0c	-0.16161746
35	0xbe2ffd4f	-0.17186473
36	0x3eba2db3	0.3636299
37	0xbea6c147	-0.32569334
38	0xbd2d2b22	-0.042277463
39	0xbe323a44	-0.17405039
40	0xbe17b7de	-0.14816234
41	0x3e12830e	0.14307806
42	0xbf045938	-0.51698637
43	0xbd334e73	-0.043775987
44	0xbe908344	-0.28225148
45	0xbe42a695	-0.19008859
46	0xbe8925e8	-0.26786733
47	0xbe57dde8	-0.21080744
48	0xbebeef0e	-0.3729176
49	0xbe930de3	-0.28721532
50	0xbe6b2161	-0.22961952
51	0xbe34a1ea	-0.1763989
52	0xbd82962b	-0.063762985
53	0x3e46427f	0.19361304
54	0xbe4b8fd5	-0.19879086
55	0xbe8c7373	-0.2743183
56	0x3f070769	0.5274568
57	0xbf251abc	-0.6449392
58	0xbe44eca3	-0.19230895
59	0xbde7c9a3	-0.11317756
60	0x3e895765	0.2682449
61	0xa96ac031	-5.2125137e-14
62	0x3e1e10e3	0.1543613
63	0xbf152228	-0.58255243
64	0xbeb83338	-0.35976577
65	0xbc1834c1	-0.009289921
66	0x3f4319ca	0.76211226
67	0xbea9deb4	-0.33177722
68	0xbe617466	-0.22017059
69	0xbc0a4e86	-0.008441573
70	0xbee57461	-0.44815353
71	0xbed77a05	-0.4208528
72	0x3f49c398	0.7881408
73	0x3ce0f60b	0.027461072
74	0xbe81ede9	-0.25376824
75	0xbef74c73	-0.48300514
76	0x3e85e8d2	0.2615419
77	0xbe8226a2	-0.254201
78	0xbd2cd8c2	-0.042198904
79	0x3d440658	0.047857612
80	0x3f01db4a	0.50725234
81	0xb0043dac	-4.810896e-10
82	0xbf0cb89b	-0.54969186
83	0xbe80d975	-0.25165907
84	0xbeb7f434	-0.359285
85	0x3ef24fcf	0.47326514
86	0xbe998200	-0.29981995
87	0x3f13ed89	0.57784325
88	0xbe133789	-0.14376654
89	0xbd825239	-0.06363339
90	0xbe004d58	-0.12529504
91	0xbefc3dd3	-0.49265918
92	0xbec99da1	-0.39378074
93	0xbe42037f	-0.18946646
94	0xbea16427	-0.31521723
95	0xbd868cbf	-0.06569814
96	0xbdd326e1	-0.1031015
97	0x3ca5351a	0.020166922
98	0x3f239497	0.63898605
99	0xbcf75aec	-0.030194722
100	0xbe81a203	-0.25318918
101	0xbbf645d5	-0.007515649
102	0xbea378e7	-0.3192818
103	0x3df67823	0.12034633
104	0xbeb97bc3	-0.36227235
105	0xbddd912a	-0.108187035
106	0xbe791831	-0.24325635
107	0xbed1f025	-0.41003528
108	0x3e9f8c61	0.31161788
109	0xbe085e86	-0.13317308
110	0xbe83b36e	-0.2572283
111	0x3f5335b9	0.8250385
112	0x3dd3c3e3	0.10340097
113	0xbebff8bf	-0.37494466
114	0xbeb3cb11	-0.35115865
115	0xbe981b35	-0.29708257
116	0xbd9cf14f	-0.076632135
117	0xbe893ab2	-0.26802593
118	0xbd985315	-0.07437722
119	0x3ed00c3f	0.40634343
120	0xbe28e784	-0.16494566
121	0xbe6a1382	-0.22859004
122	0x3ecbe150	0.39820337
123	0x3ec52c14	0.3851019
124	0xbec257cc	-0.3795761
125	0xbe9cabd5	-0.30599847
126	0xbe1caf7c	-0.15301317
127	0xbdd3c5ea	-0.103404835
