sample_models/cifar_net_sgd_72_41.pth (torch_old, 687237 bytes, 12 tensors)

conv1.weight f4 [12, 3, 3, 3]
00000000: 313e 0dbc 47de 0a3f 6b6e f03e a4d0 42be
00000010: e3f8 ca3d a4ee 1e3f 056e 60be bd9b 563e
00000020: e063 b23e 792c 33bf a03e 59bf 5ea9 dcbe
00000030: 4abe 52bf 7d1b 23bf 9e73 24be a37a 20bf
00000040: b740 b1be a143 f0bd 875c 803e ae7b 66be
00000050: 86da 8abe b91e 9ebd a094 9c3c 0564 5c3e
00000060: 50e2 5b3e 2e0f 153f 1dc7 9b3e 3d90 f6be
00000070: 2f7b c6be 5186 5f3e 15ac bebe 144f a1be
00000080: 8190 ffbc f316 d9be 57a2 15bf c1c3 a1be
00000090: f858 43be 2032 e0bd adc8 6dbe 02d2 c63e
000000a0: 79c2 3f3e 8c2e 14be 8b53 2fbd 6028 773b
000000b0: c11b b9bd 8a90 11be a088 85be e3aa 36be
000000c0: 28aa 403f 5634 433f 8f80 a73e 2ab7 0b3f
000000d0: d4fd fd3e 4ee5 b7bd 4f62 173f 95e3 39bf
000000e0: a19c ad3e f57b ad3d 636d 98bf 18a0 893f
000000f0: 0b3d febd 35ed 14bf 2616 3c3f b383 0a3d
00000100: b70b 6abf ab49 153f ac10 b1bc bf65 71bf
00000110: 6949 853f 392e 62be feec 5abf bd46 4f3f
00000120: 7025 1a3e 857f c8be 79d0 c43d e882 dbbd
00000130: 1a0d 43bf 940d 813f d5f9 423d 576f aabe
00000140: b73c 123f 0c2f 4bbe 9aa1 883e eb76 6d3e
00000150: 5b16 193e 64bb 563e c834 3f3e a348 30be
00000160: 63e4 7e3e 1404 5d3e ed83 3dbe 8254 b9bd
00000170: 24da e3be 7ecd b6be 169d 9a3d becc 383d
00000180: a123 a3be d534 2abe 0285 54be f03d 5a3e
00000190: 9b47 883e 99f8 1c3e 57f3 b5bd e41d 173f
000001a0: c158 c13e 3f51 15be 5e0b 773e 3ed8 9d3e
000001b0: 1317 7bbd 052c 32bf 57a7 18bf ec03 c1be
000001c0: cbc9 42bf 9161 863e cfbd 9c3e 60e1 923f
000001d0: d506 1e3f 794d ab3e 31be 6bbe 14c1 c0be
000001e0: 4f33 eabe 716f 42be a422 6e3e 0768 ae3e
000001f0: 3bee 5c3f 353f 073f 3eef 0c3e 294e 6bbe
00000200: 4c87 80be b1f5 eebe dd7c 19bf be54 a83e
00000210: db81 cfbd 94b3 d93e 19e7 333e 4765 68bf
00000220: ea6b 0a3f 6dd9 0dbf 866c 57be 9e76 f73e
00000230: 303a f4be 702f 88be 86d3 913d b7f1 19be
00000240: 4393 d33c 5979 6e3f 175c 8c3c 5e9b af3e
00000250: e80a 893f f98a 87be 304f a73e 84a1 a03e
00000260: 6b74 c2bd f80b 15bf 5cf6 053f 5a6f b9be
00000270: 124b 433d bff1 c13e c0f9 e6be 91d3 cebe
00000280: 493e bfbd b18c ecbe 1b71 0dbf 23b9 1a3e
00000290: 2260 b6bd 5d6c 703e 9f23 fd3d 8547 f6be
000002a0: 72e0 203f 128c eb3e 33a6 7a3f 4c40 dbbd
000002b0: 9992 fc3e 8039 9abe a480 3fbe 78f3 1abf
000002c0: fcb3 8dbf 679f 1fbf 402d 3abf 931d ebbe
000002d0: f442 9f3e b255 7a3f 9358 263f 3582 193f
000002e0: 091d 5d3e 5a7f b0be 7cf7 a0bc 7bea 19bf
000002f0: 12a2 76be 0f4d 9bbe be1d 44be c2bb b93d
00000300: 7abc 1fbe 5cd1 f1be 9f56 acbd 319d f7bd
00000310: 6778 92be 7d2c b5be 6833 593e e3c3 14be
00000320: b105 d73e 350b 603d dd32 9fbe f983 6e3e
00000330: 62f5 17bd 1c7d 28be faac 6b3d 96ab 48be
00000340: 5026 8fbd 2324 d13d af55 333d 090e 27be
00000350: 355e 483d 263a acbe fdcd cebe c8e1 0ebe
00000360: a62c b2be 4aa3 1e3c a93e f5bd ac0b a53e
00000370: dee0 263f 3823 d93e 2b1a 133f 76cf 063f
00000380: e240 a93e dcb6 4c3e b1b4 8abd 4aec 32be
00000390: 57bd 073e 1a8a bcbd 830c 9cbe b007 813e
000003a0: 28c6 00be ed96 f2be e6e6 2b3f b01e 87bd
000003b0: c672 87bd 1e41 22be b046 3ebf 5966 49bf
000003c0: f7bf 173e e7ea 4cbf 08f1 13bf 30c0 463e
000003d0: 9720 723e 7f9a f13d 4aca 4a3e 1c24 d23e
000003e0: c1cd 023f 4e05 983e b0e2 cc3e 439d 823e
000003f0: ddb8 84bd 7fa8 793e b2a1 133c 44fb 8fbe
-0.008620785 0.5424542 0.46959242 -0.19024903 0.099107526 0.62082887 -0.21916969 0.20957847
0.34841824 -0.69989735 -0.84861183 -0.43097967 -0.8232161 -0.6371382 -0.1605973 -0.6268713
-0.34619686 -0.11731649 0.25070593 -0.22508118 -0.27119845 -0.07720704 0.019113839 0.2152253
0.2147305 0.5822629 0.3042535 -0.4815692 -0.38765857 0.21828581 -0.37240663 -0.31505644
-0.031196835 -0.4240032 -0.58450836 -0.3159466 -0.19076908 -0.109470606 -0.23221083 0.38832098
0.18726529 -0.14470881 -0.042804282 0.0037713274 -0.09038497 -0.14215294 -0.260808 -0.17838626
0.7525964 0.76251733 0.3271527 0.5457636 0.49607718 -0.08979283 0.5913438 -0.7261289
0.3390856 0.084709086 -1.1908382 1.0751982 -0.12413987 -0.5817445 0.73471296 0.033817004
-0.91424125 0.58315533 -0.021614395 -0.9429588 1.0413028 -0.22087945 -0.8551787 0.80967313
0.15053344 -0.3915979 0.096100755 -0.10718328 -0.76191866 1.0082269 0.04760154 -0.3328807
0.57123893 -0.19842166 0.26685792 0.23189895 0.14949934 0.20969921 0.18672478 -0.17215209
0.2489181 0.21583587 -0.18507357 -0.09049322 -0.44502366 -0.35703653 0.07549493 0.045117132
-0.3186312 -0.16621716 -0.20753863 0.2131269 0.2661713 0.15329207 -0.08884304 0.59029984
0.37763026 -0.14581774 0.2412543 0.30829042 -0.061301302 -0.6959842 -0.5963034 -0.37698305
-0.7608916 0.26246312 0.30613562 1.1475029 0.61729175 0.33457544 -0.23021771 -0.37647307
-0.4574227 -0.18987824 0.23255402 0.34063742 0.8630101 0.5283082 0.13763139 -0.22979034
-0.25103223 -0.46671823 -0.5995615 0.32877153 -0.1013219 0.4251982 0.17568626 -0.90779537
0.54070914 -0.5540989 -0.21037492 0.48332685 -0.47700644 -0.26598692 0.07120423 -0.15033613
0.025827056 0.9315391 0.017133756 0.34298223 1.0706453 -0.26473215 0.32677603 0.31373227
-0.09494861 -0.5822139 0.5232904 -0.36217767 0.047679015 0.3787975 -0.4511242 -0.40395787
-0.09338052 -0.4620109 -0.5525071 0.15109687 -0.08905055 0.23478837 0.1236031 -0.4810144
0.62842476 0.46005303 0.9790985 -0.10705623 0.49330595 -0.30121994 -0.18701416 -0.60527754
-1.1070552 -0.62352604 -0.72725296 -0.45921 0.3110577 0.9778701 0.64978904 0.59964305
0.21593107 -0.34472162 -0.01964926 -0.60123414 -0.24085262 -0.3033223 -0.1915197 0.09069015
-0.15599242 -0.4723004 -0.08414959 -0.12090529 -0.28607485 -0.35385504 0.21211016 -0.1452785
0.4199653 0.054698188 -0.31093493 0.23292531 -0.03709925 -0.16453975 0.05753801 -0.19596705
-0.069897294 0.10211971 0.043782886 -0.16313948 0.048917968 -0.33638114 -0.40391532 -0.13953316
-0.3479969 0.009682486 -0.11974842 0.32235467 0.6518687 0.42409682 0.57461804 0.5266031
0.33057314 0.1999163 -0.067727454 -0.1747295 0.13255821 -0.09206028 -0.30478296 0.25201178
-0.1257559 -0.47380772 0.671492 -0.0659765 -0.06613688 -0.15845153 -0.7432661 -0.78671795
0.14819323 -0.8004593 -0.5778966 0.19409251 0.23645245 0.11797046 0.1980373 0.41043174
0.51095206 0.29691547 0.400167 0.25510606 -0.064805724 0.24380682 0.009010719 -0.28121388

conv1.bias f4 [12]
00000000: 9657 2cbf 86ae c33d 8027 fabd 98b1 dabb
00000010: ab51 78be 9539 27be 2cd2 31bd d4e4 82bf
00000020: a16b 1fbc a11c 08bf 8c69 f2bd a068 8dbe
-0.67321146 0.09554772 -0.12214565 -0.006674003 -0.24249904 -0.1633056 -0.043413326 -1.0226083
-0.009730251 -0.53168684 -0.11836538 -0.27618885

conv2.weight f4 [32, 12, 3, 3]
00000000: a2d9 f3bd 1320 9bbd 1230 363c bb1b 333e
00000010: b7ad 1dbe d1a4 773d 508d 9b3d 7e57 20be
00000020: a02d 083e 40bf df3c 0a4c 8e3d 3e38 f3bd
00000030: 105a 083e 9c0b 9abd 74ad 543c 0f26 8d3d
00000040: 912c a7bc 7026 213c 0acf 0fbe 3c73 763e
00000050: 9bb8 dfbd e3f8 d23e 3151 babd 7dfa 163d
00000060: 2817 843f 1b95 f9bd 6cee 453c b331 bbbb
00000070: cff5 41be 9ee8 5fbd bb5b 64be 3190 63be
00000080: f0f3 9dbc c1c0 bcbd 6c2e 1bbc 1110 693e
00000090: ffef 03be db10 10be 1679 8ebe 91ec 97be
000000a0: a310 73be de1e 9d3d 8e2b 55be 909c 4bbe
000000b0: 5889 9a3e fe83 a93d 4a13 823d f3a0 fdbd
000000c0: 6038 cc3c 3af3 843e 5fe0 28be 411b 30be
000000d0: 73f4 be3e 3735 0fbe 8a62 563d 6d58 b3bd
000000e0: d121 87be 0b9a 5d3e b214 803c 0e86 cbbd
000000f0: ae87 8bbe f74f f53b cc0d 02be 13c6 b63b
00000100: 8ee2 08be 8a37 7ebd a594 893d 99a3 9dbe
00000110: 39ca 7abc d108 8f3e fdfd 80be 54c3 433e
00000120: ee1a 11bd d541 8ebe 1fe1 023d d095 8abd
00000130: 92c3 e5bc 8d51 0f3e 2c55 91bd dd9e 773e
00000140: 161b a63b d501 0f3c 47c1 f2bc 2fe0 a7bc
00000150: 4d5e 8d3c aa1f dc3c 07aa ef3d ff70 c4bd
00000160: 2cdd b9bd 06ca 6a3c 9a03 8dbc 9ff7 ef3c
00000170: 1643 823e 50c1 31be d001 0a3e 5dbb 4e3c
00000180: 199b fc3d 8dbb 283e 816d c7bc 4c81 92bc
00000190: 929e 95bd e451 e53c 3b3d b63d 7b73 cfbe
000001a0: c5b0 dfbc f27e 19be 68fd a3be 23a9 17bd
000001b0: 4744 353e 52b4 eabc 2aa9 f9bd a396 32bb
000001c0: e281 0cbe d9d2 883c c924 d53b bb16 13be
000001d0: 390e c8bc 490a 983e 1b93 ad3e ce7f 91bd
000001e0: 23b2 813e 8514 d13d daaa 26be a616 a93e
000001f0: 49e9 173e a338 26be 4afd c73e bf55 5c3d
00000200: d178 aabe 7d81 633d fd6e 94be e01a 92be
00000210: e47d cd3d df1f 07be 5e17 28be 13d5 9b3d
00000220: 5754 1b3e 0135 a0be 193d f63d 16bb 1c3e
00000230: c803 e3be 8564 9a3d d5a7 493d 858c f5be
00000240: af89 8d3e dbdb 2bbe 6e10 0ebf 9fc1 e8bd
00000250: c5e5 27bf 6952 04bf 3362 87be 5e40 ecbe
00000260: c496 93be 86b6 19be 99a2 523d ea0d 0ebe
00000270: 6ed0 72be f5c0 0dbe 692e 19be af57 f1bd
00000280: 0cdd b63d 0eaa 1cbe 8415 3bbe 248a e5bd
00000290: 2fee e53d 2271 a2be 024c ebbd 73cb 96bd
000002a0: c75c 88bd 9176 71bb 6ab5 6dbc 27f6 3bbd
000002b0: fb95 46be ab7b ae3d 710b a3bd 1a7e c5bd
000002c0: 2169 293d 02e0 a43b c166 51be 5429 653d
000002d0: fe19 0fbf 50c6 efbd 4403 233f e272 1dbf
000002e0: da62 2abd e9a2 3c3f 9c35 fabe 1353 ad3d
000002f0: 2416 483f 216f 063d 8aff e3bd 6522 88bd
00000300: 48a5 98bd eda1 04be accf 39be 1472 4f3d
00000310: 9196 2bbd d554 d7bd 9e5a b9be b67f 133d
00000320: c398 443e c3fb 1cbf 647a 05be 8b3d ac3d
00000330: 8bbe 9fbe bc2d febc 895a 3c3e 00b4 5b3e
00000340: 30d5 4dbe 9437 27be 02dd 3f3d 8c97 afbe
00000350: dd80 e6be 0364 883e 0ec2 08bd f9ec 37be
00000360: e525 513b 3326 d3bd c432 943d 63af b2bb
00000370: 3720 44bd e1fd 083e f600 7abc 3191 d7bd
00000380: 9f23 89bd 159d 223d 328c a6bd acd0 df3c
00000390: 519a c0bb b7d8 97bd 5985 90bb 4783 f93d
000003a0: 8bf1 e63d 2a13 aa3c 842d 393e 64e5 cabe
000003b0: 0b4d 863d 8170 073d 52f8 ecbe d814 6b3e
000003c0: 8122 79bd 1012 2abe a02b 0f3f 2489 083d
000003d0: 283f 023d 9fbe 6dbd 8140 d13d 6c32 663d
000003e0: 79ac c1bc 7ad6 083d d946 1b3d 8f01 c03b
000003f0: 8e66 c7be 4072 92be 6dfc 65be 2acc 90be
-0.119067445 -0.07574477 0.011119859 0.17491047 -0.15398298 0.060459916 0.075953126 -0.15658376
0.13298655 0.027312875 0.06948097 -0.11875962 0.13315606 -0.075217456 0.012980808 0.06892025
-0.020406993 0.009835824 -0.14043823 0.24067396 -0.109238826 0.4120551 -0.09097517 0.036859978
1.0319567 -0.12186643 0.01208077 -0.0057127117 -0.18941425 -0.0546652 -0.22300617 -0.22222973
-0.019281358 -0.092164524 -0.009471517 0.22760035 -0.1288452 -0.1406893 -0.27826756 -0.29672673
-0.23736815 0.07671903 -0.20817396 -0.19883943 0.3018291 0.08277129 0.06351335 -0.12384214
0.024929225 0.25966817 -0.16491841 -0.17197897 0.37295875 -0.13985144 0.052340068 -0.087571
-0.26392987 0.21640794 0.015634868 -0.09937678 -0.27251953 0.007486339 -0.12700576 0.0055778115
-0.13367674 -0.062064685 0.06717805 -0.30788878 -0.015307003 0.27936414 -0.25193778 0.1911748
-0.035426073 -0.277846 0.031952973 -0.06766856 -0.028047357 0.13995953 -0.07096323 0.24181695
0.005069147 0.008728464 -0.029633177 -0.020492641 0.01725688 0.026870567 0.11702352 -0.09591865
-0.09075388 0.014330393 -0.017213631 0.02929288 0.25441808 -0.17358899 0.13477254 0.012617913
0.1233427 0.16477795 -0.024344208 -0.01788392 -0.073056355 0.02799315 0.088983975 -0.40517792
-0.02730597 -0.14989832 -0.3202927 -0.037026536 0.17701827 -0.028650437 -0.121904686 -0.002725043
-0.13721421 0.016702102 0.0065046293 -0.1436414 -0.024420844 0.29695347 0.33901295 -0.07104455
0.2533122 0.10208992 -0.16276112 0.33025092 0.14835085 -0.16232543 0.39060432 0.05379271
-0.332953 0.05554341 -0.28990927 -0.2853613 0.10033777 -0.13195752 -0.16415164 0.07609
0.15168892 -0.3129044 0.12023372 0.15305743 -0.44338822 0.07538704 0.049232323 -0.4795877
0.27644107 -0.16783087 -0.5549382 -0.11365055 -0.65584975 -0.5168825 -0.26442108 -0.46142858
-0.28825963 -0.15011033 0.051424596 -0.13872495 -0.23712322 -0.13843139 -0.1495911 -0.117843024
0.0892888 -0.15299246 -0.18269926 -0.11207989 0.112270705 -0.31726938 -0.11489107 -0.073630236
-0.06658321 -0.0036844353 -0.0145085845 -0.045889046 -0.1939315 0.085196815 -0.07961167 -0.096431926
0.041360024 0.0050315866 -0.20449354 0.055947617 -0.55899036 -0.11707747 0.6367686 -0.6150342
-0.04159818 0.7368608 -0.48869026 0.08463111 0.78158784 0.032820825 -0.111327246 -0.06647185
-0.074534 -0.12952395 -0.18145627 0.050645903 -0.04189164 -0.10514227 -0.36201948 0.036010467
0.19198899 -0.6132166 -0.1303497 0.08410176 -0.3120006 -0.031027667 0.18393911 0.21455383
-0.20100856 -0.16329795 0.04684163 -0.3429531 -0.4502019 0.26638803 -0.03338819 -0.17961492
0.0031913456 -0.1031002 0.07236245 -0.0054530366 -0.047882285 0.13378097 -0.015259018 -0.1052574
-0.06696247 0.039700586 -0.08132209 0.027321182 -0.005877771 -0.07414382 -0.0044104275 0.12183242
0.112765394 0.020761091 0.18083769 -0.39628136 0.065576635 0.033066276 -0.46283203 0.2295717
-0.06082392 -0.16608453 0.5592594 0.033333912 0.03179851 -0.05804312 0.10217381 0.05620043
-0.023641812 0.033407666 0.037909362 0.005859561 -0.3894543 -0.2860279 -0.22459574 -0.28280765

conv2.bias f4 [32]
00000000: 53de 1ebe 319f cb3e 8c74 ccbe 3d3f c1be
00000010: a087 32bf 96e9 15bd d976 303d 8370 903e
00000020: 8b9b 4a3e 155e 42be b4ce cbbe edd5 e13e
00000030: c17e 5c3f f66b 78be e443 58bb 2232 1cbf
00000040: 24b0 2ebe 907d 0d3e 6279 81bf a71a d1be
00000050: 4ddf 073e 62ec f0be 6a8b 26bf 6b6c 113f
00000060: 1694 6d3f cfb3 c9be d41a 02be 033a b8be
00000070: ec31 c33e f900 9fbe e666 dabe add2 c73e
-0.15514497 0.3976989 -0.39932668 -0.3774356 -0.697382 -0.036599718 0.043082092 0.2821084
0.19785897 -0.18981202 -0.3980614 0.44108525 0.8613091 -0.24259934 -0.003299945 -0.61013997
-0.1705938 0.1381743 -1.0115168 -0.40840647 0.13268776 -0.47055346 -0.6505648 0.5680606
0.92804086 -0.39394996 -0.12705547 -0.3598176 0.38124025 -0.3105543 -0.4265663 0.3902792

conv3.weight f4 [64, 32, 3, 3]
00000000: 0a41 ec3c b14d 89be b951 e0bc 7c84 6bbd
00000010: 9084 41be 15f4 c83d 7637 cc3c f5b3 2fbe
00000020: 306d dcbd ad30 86bd c9b6 973e b808 1ebe
00000030: 026e dd3d dd08 663d c757 a7bd fc61 443c
00000040: 2b96 ddbb f60b 27be 1b3f 19be b5fa b03d
00000050: e11b 97bd 169b 20bc 8d51 173d ad3e 12be
00000060: 9f06 e7bc a663 af3d 8553 18bb 3ac5 afbd
00000070: a457 6cbd f00a 12bd bf99 cb3b 8ab9 84bd
00000080: 2500 d3bd e46d 4ebd 2f69 e43c e45d a9bd
00000090: 8506 5b3d 4bb4 783d eb8a 393c f515 2ebc
000000a0: 9416 95bc e147 54bd 8475 b93c 40e2 5f3d
000000b0: 344b 0abe 75c3 cb3c 9403 42bd fd3d 0bbd
000000c0: f3fe ea3c 0bf1 a03d acf9 083d 9c2e 8c3d
000000d0: 1d8e cd3d 6636 453d 4963 90bd 1395 64bd
000000e0: 4bc4 cdbd 91c2 3d3c dda2 efbd e503 133d
000000f0: 997b 9f3b e882 c1bc 0739 e9bd 732b 8d3d
00000100: b79a 823d 7b33 a4bc d9f8 ef3d 1363 e43d
00000110: 3bd0 9abb d111 c13b c8dc e3bc 9ff2 2f3c
00000120: c5f8 ee3d 7d43 8dbd db7a 0bbd 4bbd 0d3d
00000130: 5562 fcbc d40e 773e 5dcc 09bd e469 cabd
00000140: 4dae 013d d25e eebd a4db 2cbe 832d 8fbe
00000150: fcfe 7cbd e1ef fbbd a93b 19be 2e09 44be
00000160: 08c9 68be 0e1f 193d b7f3 2cbe e138 9abd
00000170: de45 12be 16b6 8ebd 2bd1 66be 35f8 acbd
00000180: 1332 483c 5cf3 e4bc e71d 02bb a456 e23b
00000190: 67dc 33bc a70b 703e 9fd2 59be 6446 4ebe
000001a0: c1d7 68bd f284 92bb 8967 b1bc 2027 b83b
000001b0: 400e 26be 0bda 923e f26a f8bd ffac b8bd
000001c0: 19b2 6a3d 78eb e0bc 8957 1d3e 2a84 0b3e
000001d0: 075b a73d ac8c 8fbc f312 1d3e 8e55 0d3e
000001e0: 354e 58bd 9bc8 133c 55e9 81bd 65aa a73d
000001f0: 557d f5bc 8a49 20be d194 0a3d 84a8 7f3e
00000200: 597b 063c 2b3b f8bb c6cf 033d bff5 98bd
00000210: a2c1 053e 28ac a03d ccd3 493c 7845 d23c
00000220: 0d98 f43d a7c2 66bd d963 2e3c 7038 80bb
00000230: 3f17 2fbd 33d1 783d 303f 773d 3f8c 173e
00000240: 8bcd 89bb 5355 38be f989 c3bc c684 203d
00000250: c4f3 1fbe f2ac 01be bc15 3dbe 691f 93bd
00000260: 4471 8bba 8fbf 853d 0ff7 4e3c fc03 863d
00000270: c525 7a3d e89c 0b3c 7664 833c 7729 6c3d
00000280: c5b1 6abc c330 b6bd 563f 4cbd c220 0b3d
00000290: a95c 043e 91cd 91bc 6a96 1cbe 1417 c03c
000002a0: 3a74 2cbc 4ff9 67bc 110e c13c 5bf0 493d
000002b0: 923b a23c af45 283d 7dcf fe3c 578c 06bc
000002c0: ff13 0abd 8cc8 30bd cd69 03bd e709 d4bc
000002d0: 53cc cabc 9a2a 30bd 2188 b8bb 5841 f13d
000002e0: 12a0 8cbd 9b0b 183c 8ecc 9a3c 4eed 5f3d
000002f0: 5234 2cbd a629 73bc ea47 02be 19b9 03bd
00000300: 9da7 debd ebb4 46be 5388 203d c6ec 30bd
00000310: 4f76 e4bd 396b 803d aea6 43be 879d 0f3d
00000320: bbef ec3b 3843 91bd 840a f1bd 790d 12be
00000330: befa a5bd b7f3 0cbe 6df2 d1bd d58e b2bd
00000340: c65a 31be 6956 863e f6a4 d33d b0a1 3abe
00000350: 9fee 0abd f88b 063e 988d 54bd 71bd 4fbc
00000360: 2c3d 8bbd 1dfd 1f3d 8ede 52be 5332 abbd
00000370: e221 4b3c c4c1 bcbd 5f1b 0ebb 1d91 a73d
00000380: 78ad 9fbd 6788 183d 7ae3 8f3d 4231 033c
00000390: a6c4 aabc 4b37 033d 3568 8a3c 5bec 78bd
000003a0: 5bb4 1cbd 7b9a d93c 87cf e23c d624 f33d
000003b0: 8bff 48bd 0616 813d deed 003e 5433 2e3d
000003c0: 6ac3 61bd e032 943d b405 463d c6b3 26bd
000003d0: 1b87 16be 1f39 8b3e 4d3f 98bd c9e2 68be
000003e0: 1c16 8c3e 47c0 f5bd 6763 80be abaf 953d
000003f0: a0ef 22be c4c4 19bd d9d3 a63c 8a11 91bd
0.028839607 -0.26817086 -0.027382718 -0.057499394 -0.18898225 0.0981218 0.02492879 -0.17158492
-0.10763013 -0.06552253 0.29631642 -0.15433013 0.10811998 0.056160796 -0.08171039 0.011986252
-0.006762286 -0.16313156 -0.14965479 0.086415686 -0.07378364 -0.0098026 0.036943007 -0.14281721
-0.0282014 0.08563928 -0.002324314 -0.0858254 -0.057700768 -0.035654962 0.0062133963 -0.06480701
-0.10302762 -0.05039777 0.027882187 -0.08269861 0.053473014 0.060718816 0.0113246245 -0.010625352
-0.018199243 -0.05182636 0.022639044 0.05465913 -0.1350525 0.024873475 -0.047366694 -0.033994664
0.028686022 0.07858475 0.03344123 0.068448275 0.100368716 0.04814758 -0.07050187 -0.05580623
-0.100472055 0.011582033 -0.117009856 0.035892386 0.004867029 -0.023621991 -0.1138783 0.06893053
0.06377166 -0.020044079 0.11717386 0.111517094 -0.00472453 0.0058920165 -0.027815238 0.010738998
0.11668543 -0.06897638 -0.03405271 0.034604352 -0.030808607 0.2412675 -0.03364216 -0.09883478
0.031660367 -0.11639179 -0.16880661 -0.2796441 -0.06176661 -0.12301613 -0.14964165 -0.19144127
-0.22732937 0.03738313 -0.16889845 -0.0753038 -0.14284465 -0.06968324 -0.22540729 -0.08445779
0.01221897 -0.027948074 -0.001985425 0.006907301 -0.010977841 0.23441945 -0.21271752 -0.2014404
-0.056846384 -0.0044714147 -0.021655815 0.0056198984 -0.16216373 0.2868198 -0.12129773 -0.090173714
0.057298753 -0.02745603 0.15365423 0.13624635 0.08171659 -0.017523132 0.1533926 0.13802168
-0.05280896 0.009019996 -0.06343333 0.08186797 -0.02996699 -0.15653053 0.03383333 0.24966627
0.008208119 -0.0075754127 0.03218057 -0.07468747 0.13062146 0.07845336 0.012318563 0.02566789
0.11943064 -0.05633798 0.010643923 -0.003912978 -0.04274678 0.060746383 0.060362995 0.14799593
-0.004205411 -0.18001299 -0.023869501 0.039189123 -0.15620333 -0.1266363 -0.18465322 -0.071837254
-0.0010638614 0.065306775 0.012632146 0.06543729 0.061071176 0.008521296 0.016039114 0.05765673
-0.01432461 -0.08896019 -0.04986509 0.033966787 0.12925972 -0.017798217 -0.15291753 0.023448505
-0.010525757 -0.014158561 0.023566278 0.049301486 0.019803796 0.04108208 0.031104797 -0.008212171
-0.033710476 -0.043160006 -0.03208332 -0.025883628 -0.024755633 -0.043009378 -0.005631462 0.117800415
-0.068664685 0.009280111 0.018896367 0.05466967 -0.042042084 -0.014841473 -0.12722746 -0.032158945
-0.108718134 -0.19404952 0.03919251 -0.043194555 -0.11155378 0.06270451 -0.19106552 0.03506234
0.0072307265 -0.07092899 -0.11769584 -0.14262952 -0.08104466 -0.13764845 -0.10251317 -0.08718649
-0.17319784 0.262378 0.10334198 -0.18225741 -0.033918973 0.13139331 -0.051892847 -0.012679444
-0.06798777 0.039059747 -0.2059271 -0.08359208 0.012398215 -0.09216645 -0.0021683795 0.08181975
-0.077967584 0.03723946 0.070258096 0.008007349 -0.020845722 0.032035153 0.016895393 -0.06077228
-0.038257938 0.02656292 0.027686847 0.1187226 -0.04907183 0.06303029 0.12590739 0.04252942
-0.055118002 0.07236266 0.048345283 -0.04069879 -0.14699976 0.27192017 -0.07433949 -0.22742762
0.27360618 -0.119995646 -0.25075838 0.07308897 -0.15911722 -0.037541166 0.020364689 -0.070834234

conv3.bias f4 [64]
00000000: 5e1b bfbb 85bf 02bd 47f1 2e3e add6 a4be
00000010: 29e0 c1be c007 423c 1400 1d3f 3a4b 11bf
00000020: 1e33 303e f09e 923e 8fdf b23e 3ebf cbbd
00000030: af55 4bbe eb9a 6dbe 19d0 a5bd b02d 6cbe
00000040: 84f9 aa3d f6a0 22be 153f ed3d 2f38 34bc
00000050: 906e e8bd 45a1 debe b53f a43e 003a adbe
00000060: 35da cf3d 4224 de3e fbd1 9fbe eaf3 a5be
00000070: 2b68 aa3e 5209 8c3f d1b2 843f dc4c 61be
00000080: 87e0 293e 16f5 193d 8317 da3e 084e e0bb
00000090: 1c18 ecbc b491 e2bd 73da 263f ad87 99be
000000a0: 7fea 7dbe ea9e c63e d093 d13c 480a dbbe
000000b0: 65f4 acbe dc0f 48bc 3e0e 6bbd b63a dabe
000000c0: e782 1c3f 97b3 a83d 4eee f43d b29d 05bf
000000d0: 3892 0abf 4b85 aebe 2aae 8e3e 036c f7be
000000e0: 817c 22be 5821 3e3f 1cf1 9cbe 5d92 2f3f
000000f0: a0f9 9ebc 1377 2c3e ce24 17bf ad16 223e
-0.00583212 -0.03192093 0.17084228 -0.32195035 -0.37866333 0.011842668 0.61328244 -0.5675541
0.17207 0.28636885 0.34936187 -0.09948586 -0.19856904 -0.23203628 -0.08096332 -0.23064303
0.083483726 -0.15881714 0.115842976 -0.010999723 -0.11349213 -0.43482414 0.32079855 -0.33833313
0.101490416 0.43387038 -0.3121489 -0.32412654 0.332826 1.0940344 1.036707 -0.22001976
0.16589557 0.037587248 0.42596063 -0.0068452395 -0.02882009 -0.11062947 0.6517708 -0.29986325
-0.24796484 0.38793117 0.025583178 -0.4278128 -0.33780208 -0.012210812 -0.05738663 -0.42622918
0.6113724 0.08237379 0.119595155 -0.5219375 -0.5412936 -0.3408607 0.27867252 -0.48324594
-0.15867807 0.7426963 -0.30652702 0.6858271 -0.01940614 0.16842298 -0.59040534 0.15828963

fc1.weight f4 [128, 1024]
00000000: ada6 8a3a 2a80 10bc db32 153d 4b8e 6b3a
00000010: 95b9 30bd 7eb8 2abc 7947 843d 89fa a13c
00000020: 6396 2dbd a386 43bd 3082 c8bc f61a 0d3d
00000030: 38e2 b9bc a44d db3c 03eb b13b 1793 03bc
00000040: 3fdc 673d 9fbb 1fbd 6b03 c53c d949 523e
00000050: 7f0e e73c 57de a43b 6026 38bd 261d bfbd
00000060: 2e77 763c 611f 52bb e85d 843d be71 01bc
00000070: df32 3bbc e67c 7ebb b361 9a3d ba04 a2bd
00000080: 8018 dfbb 2e62 9ebc f81a f53c 421c 1e3c
00000090: aab8 fa3b fb5a 0f3d 94bc 07bd a74f 243a
000000a0: 4488 a2bd 7166 a7bd aabc 243d 9f9d 6dbc
000000b0: b43c 64bc 3bd3 60bd 3df8 013d 5a5c 80bc
000000c0: 8447 eb3c c278 f8bc 9f22 2cbd 67ac 5e3c
000000d0: 4812 7abd 8e68 3cbc 7222 283d 6141 0cbd
000000e0: faa0 23bd ee17 83bc 362f d5bc d726 fdbc
000000f0: de43 6abd 0ad1 34bd b401 223d f6cc 2d3b
00000100: 2aa4 0d3d 3895 023d 16f7 3fbd 72bb 63bc
00000110: bdfa 693c fbc4 98bc 128e adbd c19a 0abe
00000120: 8ead 52bd fd7a 0c3c c266 15bd 7d4f a3bd
00000130: b8bc 923c 2f2e a3bc 27da 27bd 6af2 193d
00000140: 4db2 37bd 19fd a2bd e372 1a3d 2443 a5bb
00000150: 6d20 c53d 95b9 733d 322d 8c3d bc20 f5bc
00000160: 1811 5abb a882 06bd 609e 6bbd cb4a 1f3c
00000170: 11fa 8bbd 0292 ebbb b879 3b3d f356 013d
00000180: 503f afbc b9e7 aabc 2ab8 b73c 14a5 75bb
00000190: de9e 24bd 5cd9 e7ba 3f4c bd3c f344 3dbd
000001a0: c22c 37bd a7a4 7e3c 0d8f db3b a408 c6bc
000001b0: 6392 393d b0ab a73c 40f1 05bc d5ab 2abc
000001c0: d913 0b3c b236 74bd d575 2abb e4d4 c93b
000001d0: ffd6 3c3c 6a8a 94bd 139f d5bc a27f 82bd
000001e0: f6b9 1ebd e515 773d a0e1 c1bc 0f7b 473b
000001f0: 4a91 f8bc 8780 82bd 68cc 10bd ef2c 6cbc
00000200: 28fc f03d 324c 2dbd 8639 90bd 79c3 743d
00000210: ef16 033d 8c52 723c 1326 95bd ae8c 68bc
00000220: 84b5 e2bb 29c1 7dbc 55eb 8fbd 0bc2 7ebd
00000230: dd6b 26bb 41d1 77bb c54e aa3b 8e6a 213c
00000240: 4c9b 79bd 8e4a d5bb 9537 31bc 9d53 c53c
00000250: 8429 023d 94c3 063d 3165 00bd c0af 95bc
00000260: b764 373d d00b 093d 3e43 86bd 97fc 28bc
00000270: d9b7 5d3d 967d 84bd a385 91bb 8f6f 3f3c
00000280: fb99 5dbd d54a 0cbd bd9f 233d ce90 26bc
00000290: 9711 7b3d f4e3 043d 3e31 16bd fde1 7ebd
000002a0: 6059 713a 88e8 a63d b8d3 723d 0f54 a83b
000002b0: e5bb 553d fc93 093b d62a da3b 9c55 223d
000002c0: 0071 ae3c 1f68 beba 16d0 8cbd 36d7 563c
000002d0: 9162 0d3d d88c a3bc 9e9b 213d df5e aabd
000002e0: 8131 93bd a6af ddbc cb5f 3f3d f922 8c3b
000002f0: 1311 63bd 6606 4c3d 602f 833c f9e0 0a3d
00000300: 47d6 9abc 10ec c9bc e7d3 7b3c caab 3abd
00000310: 3264 a1bd e81a 7ebd 2ab7 993c 0f92 3d3c
00000320: dc48 363c ac5c e1bc b28e 1fbd 4167 81bb
00000330: 7f09 0dbd d669 99bb df29 3e3c 418f 603d
00000340: 84c0 57bd 4a1c c7bd 645c bd3d 9e1e 90bd
00000350: 97bc 06be 9e1a 81bd 5609 ed3d 155d 48bd
00000360: 0c7b 3fbd 20e9 6bbb d136 a13d a197 39bd
00000370: 99c9 8cbd 93d3 ce3c f5c1 80bd e0b8 ddbc
00000380: 90ce 423b 4517 a3bd f3ee 8bbc 909e 17bc
00000390: 2d78 2bbb 26be f0bc 2a6e 98bb f2a2 78bd
000003a0: 8284 3abd eaac 8c3d 4b9c 143d c81b 47bd
000003b0: abde 763c 96bf c73b b4fa fbbb afc3 81bc
000003c0: 1d55 e43b 1ba8 573c a9ba cc3b 254c 02bd
000003d0: 7b29 af3b 288e d53c c37c 8abd dd0c ff3d
000003e0: 937b 963d 145e b23c fe4c 51bd b3b5 dcbc
000003f0: c525 4d3c ed3d d7bb b1ef 15bc d29d a83b
0.0010578238 -0.008819619 0.036425453 0.0008985742 -0.043145735 -0.010419963 0.06458945 0.019772785
-0.042379748 -0.04773582 -0.02447614 0.03444954 -0.022690877 0.02677042 0.005429627 -0.008030674
0.056606527 -0.03899729 0.024049481 0.20535983 0.028205154 0.005031388 -0.044958472 -0.093317315
0.015043063 -0.003206216 0.06463224 -0.007900653 -0.011425703 -0.003883177 0.07538166 -0.07911058
-0.0068083405 -0.019333925 0.029920086 0.009650292 0.007651408 0.034998875 -0.033138826 0.00062679726
-0.07936147 -0.08173836 0.040218987 -0.014502912 -0.013930488 -0.054888945 0.03173088 -0.015669037
0.028720625 -0.03033102 -0.042025205 0.013590909 -0.06105259 -0.011499537 0.041048475 -0.034242038
-0.03994844 -0.016002622 -0.026023488 -0.03090231 -0.05719363 -0.044144668 0.039552405 0.0026519871
0.034580387 0.031880587 -0.0468665 -0.013899671 0.014280972 -0.018648615 -0.084743634 -0.13535596
-0.051435046 0.008574245 -0.03647495 -0.079741456 0.017912254 -0.019919483 -0.04097953 0.0375847
-0.044847775 -0.07958431 0.03770722 -0.005043404 0.09625325 0.059503157 0.06844558 -0.029922836
-0.0033274349 -0.032839447 -0.057524085 0.009722422 -0.06834806 -0.0071890363 0.045770377 0.03157706
-0.021392494 -0.020862447 0.022426683 -0.0037482427 -0.04019057 -0.001768868 0.023107646 -0.046208333
-0.04472042 0.015542186 0.0067004026 -0.024174042 0.04530562 0.02046761 -0.008175194 -0.0104169445
0.008488619 -0.059622474 -0.0026010175 0.0061594117 0.011525868 -0.07252963 -0.026076829 -0.06372
-0.038751565 0.060323615 -0.023667157 0.003043834 -0.030342717 -0.06372171 -0.035351187 -0.01441501
0.11766845 -0.042308994 -0.07042222 0.05975673 0.032004293 0.0147901885 -0.07282653 -0.014193697
-0.006918611 -0.0154879475 -0.07027308 -0.062196773 -0.0025393881 -0.0037813934 0.0051973783 0.009852065
-0.06093912 -0.0065091318 -0.010816474 0.024087721 0.031777874 0.03290136 -0.031346504 -0.01827228
0.044773784 0.03345853 -0.06555794 -0.010314128 0.05413041 -0.06469266 -0.0044409796 0.0116843125
-0.054101925 -0.034251053 0.03994726 -0.01016636 0.06129607 0.032443956 -0.036668055 -0.062227238
0.00092067383 0.081498206 0.059283942 0.0051369737 0.052181143 0.0020992747 0.0066579385 0.039632425
0.021294117 -0.001452688 -0.06875627 0.013112834 0.03451783 -0.01996462 0.03945505 -0.083188765
-0.071871765 -0.027061295 0.046722215 0.00427663 -0.055436205 0.04981079 0.016013801 0.033905957
-0.018901004 -0.024648696 0.015370346 -0.045573987 -0.07880439 -0.06203738 0.018764097 0.011570468
0.0111257695 -0.02751001 -0.038954444 -0.0039490764 -0.034432884 -0.004681806 0.0116066625 0.054824118
-0.05267383 -0.097221926 0.09246138 -0.0703709 -0.13157879 -0.06303905 0.11574046 -0.048916895
-0.046748206 -0.0035997108 0.078717835 -0.04531062 -0.06874389 0.02524737 -0.06286994 -0.027065694
0.0029725172 -0.07963423 -0.017081713 -0.009254113 -0.002616416 -0.029387545 -0.0046518045 -0.06070227
-0.045536526 0.06868918 0.036281865 -0.04861048 0.015067737 0.006095837 -0.0076897983 -0.01584038
0.006968154 0.013162638 0.0062478376 -0.0318109 0.005345521 0.026068762 -0.06762078 0.12453625
0.07347789 0.021773376 -0.051098816 -0.02694211 0.012521212 -0.0065686614 -0.009151385 0.005145767

fc1.bias f4 [128]
00000000: 4693 81bc fd66 153e a983 6a3e 37d4 50bb
00000010: be93 6dbe aee3 03bd 7b13 753c bdd6 99bb
00000020: 8ccd a23d 6a64 54bd 2991 ae3d f96d ae3d
00000030: e1e5 103e fa67 ac3d 2570 41be 084b 1f3d
00000040: 188e cd3d 09ca 12b9 a8e9 e9bc ccd4 563e
00000050: 78e2 4a3e ff40 873b d22c f5ba dfdd 3d3e
00000060: 99dc 0ebd 8565 92bd 679d fe3d a53a d4bc
00000070: da55 1abb 6d27 653e 261a 7b3d b99b b63d
00000080: de1b a23e 5b62 153d 4d2d 1a3e dcbb e4bb
00000090: c8ef ddbd 649c 403d ae0a 3dbd 311a 0c3e
000000a0: f485 f63d b7b3 29bd f9d4 70bd b1ce eb3d
000000b0: 2610 da3d 9236 74bd 910c c23c 52eb 023e
000000c0: c118 ad3d 5e42 b63c 4440 ec3c d11a dbbd
000000d0: f227 0c3e 0232 e9bd 1da3 e23e 020d a83e
000000e0: 921e f03d 7a60 083d c8b4 5c3e 1094 10bd
000000f0: 20fb 063c 365c c63c 540e fbbd 50f4 403e
00000100: d841 99bd c64f 923d 0114 443e ab80 323d
00000110: b50e 03be edbf 95bd 1b82 8f3e 9e7e f33d
00000120: 2aa8 93bc 7e91 a9bc 8434 9f3d 949e 913d
00000130: 5dae 1c3d 9d92 2dbc 79c5 efbd 2e5d d9bd
00000140: eab5 17bb 1dfc bfbd 3e24 ea3b 9eb7 8e3d
00000150: f692 c8bd cd65 d53b e8b2 2e3c c344 d53d
00000160: aa4b 16be 6fbd 143c ea31 ec3a dba9 193e
00000170: 4972 2b3e e5f2 8fbb 9c8c b93c c0dc ac3e
00000180: 04e1 653d 23fc 943d 1ebb 97bc 71ab 223e
00000190: ee27 f9bc b6cf 10bd 88cc ffbb e313 92bb
000001a0: 7bbf 04bd 0db6 a2bc a4f5 d83d 00b3 343c
000001b0: 03ed 41bd 34c3 6e3e 0eef 9c3d bbe0 e5bc
000001c0: 02c7 3dbc 9ee3 803e e335 553e 0173 0bbd
000001d0: 0b3f 893e 514f 0a3b 24c6 9cbe 729f ea3d
000001e0: 1601 be3c 7c72 1d3e 0b13 b73c 0f5b f3bd
000001f0: 1eb8 8ebd b8f8 2b3e 0c94 073e a48c 053d
-0.015817296 0.14590068 0.22901787 -0.003186477 -0.2320089 -0.032199554 0.014958258 -0.0046947883
0.07949361 -0.051853575 0.08523781 0.08517069 0.14150192 0.084182695 -0.18890436 0.038889915
0.10036868 -0.00013998909 -0.028553799 0.20979613 0.19812953 0.004127621 -0.0018705374 0.18541668
-0.034878347 -0.071482696 0.12432366 -0.02590687 -0.0023549707 0.22378321 0.061304234 0.089164205
0.31661886 0.036470752 0.15056343 -0.0069804024 -0.1083675 0.047024146 -0.046152763 0.13681866
0.12037268 -0.041431155 -0.058796857 0.11514033 0.10647611 -0.059622355 0.023687633 0.1278508
0.08451987 0.022248443 0.028839238 -0.10698474 0.13687113 -0.11386491 0.4426507 0.32822424
0.11724581 0.033295132 0.21553338 -0.035297453 0.008238584 0.024213891 -0.12258592 0.18843198
-0.07483262 0.07144122 0.19148256 0.04357974 -0.12798579 -0.073119976 0.2802895 0.11889385
-0.018024523 -0.020699259 0.077736884 0.071103245 0.038252223 -0.010594037 -0.11707587 -0.10613476
-0.00231492 -0.09374259 0.0071454337 0.06968616 -0.097936556 0.0065123797 0.010662772 0.10413506
-0.14677301 0.009078368 0.0018020247 0.15006201 0.16742815 -0.004392969 0.022650056 0.3376217
0.056122795 0.07274654 -0.018521842 0.15885712 -0.030414548 -0.03535434 -0.0078063644 -0.004457937
-0.032409173 -0.0198622 0.10593727 0.011029005 -0.047345173 0.23316652 0.076627836 -0.028061261
-0.011583092 0.25173658 0.20821337 -0.034045223 0.2680591 0.0021104405 -0.3061992 0.11456193
0.023193877 0.15375704 0.022347948 -0.118826024 -0.06968711 0.16794097 0.13240069 0.03260483

fc2.weight f4 [128, 128]
00000000: 4ee1 bb3d 920d 4f3d ca47 d13c 15d3 4b3d
00000010: 89b7 2cbe f936 8d3d c526 dc3c 9d0f dabd
00000020: 949a c53d bc0d babd d5bd 673d 28a5 9e3d
00000030: 80c9 92bd 6c4a 3cbd b47a 89bc 994e 833d
00000040: 5e04 98bd 94a6 a7bd b1c1 3f3d 5fcb 80bd
00000050: c7a0 883d eb00 913d de07 eabd 14fc 313d
00000060: 20f9 1abe 46ec 483c 4541 00bd fe69 7abd
00000070: 2f52 75bd 712a ed3d e496 f0bd ea6c b0bd
00000080: 379f 2b3b 0dae e8bd c4c3 7cbc bcc3 8ebd
00000090: 152f 613d 5678 743d 7172 88bc da37 1dbe
000000a0: ddaf 09be eaed 3dbd 5657 d5bd 4951 f23d
000000b0: 997e a03d 0f18 e3bd 9ef4 d73b 2799 753c
000000c0: 96f9 5a3d 4d34 1ebd 5508 eb3d 98b6 e3bd
000000d0: 7ca9 d7bd eee7 4fbc 5545 05be 005b a9bd
000000e0: 0510 f8bc c33b 6bbd 360a 363e 7deb 28bc
000000f0: 7c10 b53b 2de1 a3bd 3a0b ed3c dd0b 013e
00000100: 3a90 6dbd 30ce aabc 02c5 aabd 96ea d3bd
00000110: cfdc 60bd 613e 00be 683c 46bd 9183 aebc
00000120: 6151 9e3d d8ec 8bbc f836 bfbc 6d1d 4d3d
00000130: 0601 bb3d 797d 113e e364 00b9 bebe 8abc
00000140: 83a0 0abd 93f6 9dbd c6cf 16bb 2cf3 873d
00000150: 6bde d03d d1c8 26be 1a55 463d 854d 8fbc
00000160: 21b0 ae3c 481b fb3d 79b0 f5bb 89cd 73bd
00000170: c47e 35bd a001 bdbd d01f 59bd 9f53 b5bd
00000180: 160c c0bd 8bc2 a5bc 450a 6c3c 1a83 803b
00000190: 651d 8e3d c788 9abd b10c 96b9 c6eb 09bd
000001a0: c5f8 3e3c f6fb 253d 380d f63d 05bf 87bd
000001b0: 624e 223b f442 bfbc 73c7 37bd 33fd a23d
000001c0: f30d eabd d7e5 773d 296b fb3d a728 6cbd
000001d0: 8015 c0bd cd53 7bbd 0d33 ad3c a255 97ba
000001e0: e708 4c3d 8091 a23c bd99 a1bd c7d5 02bd
000001f0: dae2 f3bd d552 87bd 4988 23be b493 b4bd
00000200: 69bc 883d 6915 963d d2f9 d2bd 9dff ce3b
00000210: a022 1cbd ad16 4a3d 3026 173c ac31 8abc
00000220: db13 8c3d ea54 fabd ab48 c4bb 89ec 083e
00000230: 6ca2 a1bd ccfd 00bd a6ef 543a 3e7f 91bc
00000240: 5ab6 e2bd 3ffc 3f3b e9b1 84bd 7ed0 c93d
00000250: 2903 473d 77c2 8f3d dac5 25be 1e72 823d
00000260: a5f2 96bd b818 5fbd 8195 473d fdf4 59bd
00000270: cb78 873d a8e8 2fbd cef1 9dbb 71ac 96bd
00000280: 11b4 b53d 3946 82bd d7bc 893c c94d c23d
00000290: f127 b3bd a6de 74bc 9701 043e fafe e43d
000002a0: 801d eb3c 44bb 00bd 07d7 953c be43 40bd
000002b0: 76b5 cd3d 4b3d 4e3e ba66 853a e7b1 af3d
000002c0: 2c40 0dbd 153e dbbc 2300 fcba 7cf1 acb9
000002d0: 06b2 da3d 59aa f0bd 094f d4bc 465c 85bc
000002e0: e513 dcbd 8ca3 f23b 1d71 1cbb 29ac e63c
000002f0: 2d21 0b3d 92d9 063d 7405 8fbd d2f4 3c3d
00000300: bec4 efbd aa99 9ebd 1633 633d cb02 18be
00000310: 8e0a adbd ae8f f13a 086c 92bd 39c6 09be
00000320: fe93 b0bd 8d90 12bd 9ac4 8fbc 377d 143d
00000330: 7c50 80bd 2fa7 b03d a4b0 98bd c9d1 ca3b
00000340: f8a5 21bd 72aa 0a3c 6cc5 79bd 9cc5 203e
00000350: 48a4 19bc 39a9 dc3b 991e 00be 7c41 573d
00000360: 1cbd 95bd 7dbf b5bd 073e 533d 4c46 f7bd
00000370: d889 3bbd f9d6 5dbd e694 50bd 7b87 2d3d
00000380: 312a 8b3c 3f5d 4a3d d183 403d 4fc3 ad3d
00000390: 5cae c33c f793 77bc b762 9abd b337 933d
000003a0: 8011 ee3d a401 aa3d e403 e9bc 553e 543a
000003b0: 7bb3 e23c 44a2 073e 0868 333d 9d14 29be
000003c0: c6c6 893d 69d0 083d 22ff 92bc 5563 b3bd
000003d0: c997 75bc f42e 4bbd a487 a0be 0aa9 c43d
000003e0: cb28 ab3d c5af 92bd 4930 603d 49bb 9cbd
000003f0: 48f2 6c3c 71b5 5a3d 1e48 81bc c4c0 ae3c
0.09173833 0.05055005 0.025546927 0.04976185 -0.16866888 0.06895251 0.026873956 -0.10647509
0.09648624 -0.09084651 0.056577522 0.07746345 -0.07167339 -0.04596941 -0.016782142 0.06411476
-0.07422708 -0.08186069 0.046815578 -0.0628879 0.06671291 0.07080253 -0.11427282 0.04345329
-0.15134096 0.012263363 -0.031312246 -0.06113624 -0.05989283 0.11580361 -0.1174753 -0.08614524
0.0026187429 -0.113613226 -0.015427534 -0.06970927 0.05497654 0.059685074 -0.016656132 -0.15353337
-0.13445993 -0.04636947 -0.10417049 0.1183191 0.078366466 -0.11088573 0.00659044 0.014990128
0.05346068 -0.038624097 0.114761986 -0.11118811 -0.105303735 -0.012689574 -0.1301473 -0.0826931
-0.030281076 -0.05743004 0.17777333 -0.010310051 0.0055256467 -0.08001933 0.028936017 0.12602182
-0.057998873 -0.020850271 -0.083383575 -0.10347478 -0.05489808 -0.12523796 -0.04839745 -0.02130297
0.077303655 -0.01708071 -0.02334164 0.05007689 0.091310546 0.1420802 -0.00012244614 -0.016936656
-0.033844482 -0.07713046 -0.0023012026 0.06638178 0.10198673 -0.16287543 0.048421003 -0.017493019
0.02132422 0.12261063 -0.007497844 -0.059522185 -0.044310346 -0.092288256 -0.053008854 -0.0885384
-0.09377305 -0.020234367 0.014406745 0.0039218785 0.069392 -0.075456195 -0.00028619685 -0.033672117
0.011655991 0.04052349 0.1201424 -0.06628231 0.0024765958 -0.023347355 -0.044867944 0.0795845
-0.11428442 0.060521927 0.122762986 -0.057655957 -0.09379101 -0.061359216 0.021142507 -0.0011545906
0.049813177 0.01984477 -0.078906514 -0.031942155 -0.11908503 -0.06607596 -0.15969957 -0.08817235
0.066765614 0.073283024 -0.10301556 0.0063170926 -0.03811896 0.04933803 0.009225413 -0.016869389
0.06839725 -0.12223227 -0.005990108 0.13371481 -0.07892308 -0.03149204 0.00081228686 -0.01776087
-0.11069937 0.0029294637 -0.06479246 0.0985422 0.048586998 0.07019513 -0.16188756 0.063694224
-0.073704995 -0.054466933 0.048726562 -0.053212155 0.06614836 -0.042946488 -0.004820085 -0.07357109
0.088722356 -0.0636105 0.016813679 0.094874926 -0.087478526 -0.014945662 0.12891231 0.111814454
0.02870059 -0.03142859 0.01829101 -0.046939604 0.100443766 0.20140569 0.001017771 0.08578854
-0.034485027 -0.026763001 -0.0019226115 -0.00032986316 0.106784865 -0.11751241 -0.025916593 -0.016279351
-0.10745982 0.00740475 -0.0023871132 0.028158264 0.033967186 0.032922335 -0.06983462 0.046131916
-0.117074475 -0.07744153 0.05546864 -0.14844815 -0.08449279 0.0018429661 -0.071495116 -0.13454522
-0.08621977 -0.035782386 -0.017549802 0.036252227 -0.06265351 0.08625638 -0.074555665 0.006189559
-0.03946492 0.008463489 -0.06097929 0.15700382 -0.009377547 0.00673404 -0.12511672 0.052552685
-0.073114604 -0.08874414 0.051572826 -0.12073955 -0.045785755 -0.054160092 -0.05092325 0.042365532
0.016987892 0.049405333 0.04700071 0.08484518 0.023886852 -0.015110961 -0.075383596 0.07188358
0.116244316 0.08301094 -0.028444238 0.00080964464 0.027673474 0.13245493 0.043800384 -0.1651177
0.06727366 0.03340188 -0.017943922 -0.087591805 -0.014989802 -0.049605325 -0.31353486 0.09602554
0.0835739 -0.07162432 0.05473355 -0.07652909 0.014462061 0.053395692 -0.015781458 0.021332152

fc2.bias f4 [128]
00000000: ec0f 4e3d a97f da3d 365b 503e e060 99bd
00000010: 0cc8 793e 48fe 6a3e a955 3d3e 10eb b6bd
00000020: 5782 ad3e a691 573d b24c 933e fc44 cb3e
00000030: f0e7 1a3e ce52 863e 5e58 34bd 135c b4bd
00000040: 4d7e 7a3e 6cf7 993c b975 b83e 8d11 c53e
00000050: 276f 693d b46e b63e bf08 3abd 9441 e8bc
00000060: 3e8c ff3d 9796 4e3d 3b8c 443e f004 31be
00000070: e1ab 4a3d ca09 063e 9f37 57be 2838 a1bd
00000080: 17e1 793e c66d 69bd 9f88 98bd 902e 93bd
00000090: ae9e c3bd e39f 6bbd b478 d8bd f3fb 513e
000000a0: 4253 e03c 1848 df3e 5a02 28bd 88ed 4dbd
000000b0: 862c f83a 79ff 00be 48bc be3d f020 413d
000000c0: 6795 dd3e 867c 79bd 4507 ffbc 4fa4 3e3e
000000d0: 8219 07bd 6a5f 2cbd a1b2 923e 3a04 3bbd
000000e0: bcce 443e 8a9a af3d bf31 843e 144e 383e
000000f0: 3bb7 a93e b9c9 5f3e ef3a 7ebd c84c ec3d
00000100: 8d33 b1bd 7d3f c3bb e5d4 ea3d 037e 6c3e
00000110: a052 2dbd c29b b93d 497f fc3d 21bd 44bc
00000120: fb90 acbd 65dc b53e 1ada 95bd 8110 8abd
00000130: a642 edbb 794b e23e abcc 943c f11a af3c
00000140: 09c1 433e 2115 bdbc 4aa1 b0bc a186 b9bd
00000150: 65f7 053e 06c4 f9bd 9576 443e 5c9b 5a3e
00000160: db62 1ebc 55d2 fabc 575c 933d b8ee f2bd
00000170: b6b5 463e 8967 03bd 0ba3 bcbc b319 b0bc
00000180: dcf0 6a39 05f7 da3c d5d6 40bd c1b6 363e
00000190: 56fd 743e d079 683c 69f8 433e bf72 b93d
000001a0: 4180 5d3d fc52 6a3e 3b60 fa3d d9a7 8abb
000001b0: e65f e03d 2814 26bd c4b5 8ebe 99ae 83bd
000001c0: 4275 e83d 03d9 163d 4b59 103e f6db 19bd
000001d0: fbdf 6b3e 0df3 813e 171b 863d 505b cc3d
000001e0: 7577 34bd 687c 56bc dfcf b73e 9a89 6e3c
000001f0: e60b febc 692f 9f3e f9e5 aebd 91c4 29bb
0.050308153 0.106688805 0.20347294 -0.074891806 0.24392718 0.22948563 0.18489708 -0.08931553
0.33888504 0.052629136 0.2876945 0.39701068 0.1512754 0.2623505 -0.044029586 -0.08806624
0.24462242 0.018794738 0.36027315 0.38489953 0.05699077 0.35631335 -0.045418497 -0.028351583
0.12477921 0.050436582 0.19194119 -0.1728704 0.049480323 0.13089672 -0.21017312 -0.07872039
0.24402271 -0.056989454 -0.074479334 -0.071866155 -0.0955175 -0.057525527 -0.10569897 0.20506267
0.02738345 0.4360969 -0.041017868 -0.050275356 0.0018934167 -0.12597455 0.093132555 0.047150552
0.43278047 -0.06090977 -0.031131396 0.18617366 -0.03298331 -0.04208318 0.28651908 -0.045658328
0.19219488 0.08574398 0.25819203 0.17998534 0.33147606 0.21854295 -0.062067922 0.11538082
-0.08652411 -0.005958496 0.11466388 0.23094945 -0.042315125 0.090629116 0.12328965 -0.0120079825
-0.0842609 0.3551971 -0.0731699 -0.06741429 -0.007240611 0.44198206 0.018164 0.021375151
0.19116606 -0.023081364 -0.021561284 -0.090588816 0.13082655 -0.12195592 0.1918586 0.21348327
-0.009667124 -0.030617872 0.07195347 -0.11861938 0.19405255 -0.03208116 -0.023026964 -0.02149663
0.00022405706 0.026729116 -0.04707988 0.17843153 0.23924765 0.014189199 0.1913773 0.09055089
0.05407739 0.22883219 0.12225386 -0.004231435 0.10955791 -0.040546566 -0.2787305 -0.06429786
0.1135049 0.036828052 0.14096563 -0.037563287 0.2303466 0.25380746 0.06548136 0.09978354
-0.044059236 -0.013091184 0.3590078 0.014559174 -0.031011533 0.3109086 -0.085399576 -0.0025904516

fc3.weight f4 [10, 128]
00000000: 6c55 bfbc a2bb 7fbd 11a7 3a3d 224d a03b
00000010: 8545 323d b257 ecbd a69a 913e c66c 7d3d
00000020: 1cb8 833e 50eb a23e 22b8 cfbd ee44 bcbd
00000030: d9c8 1c3d c7f5 28bc 70b3 d63c 7855 633c
00000040: 3f80 033d 2277 d33d 9de0 03be d1d0 17bd
00000050: 5810 de3c 644d 913e 3754 8bbe f6a3 df3d
00000060: 67fe c9bc 9248 70be d86c 913e 7c35 803d
00000070: d194 013d 051d 233e b647 9ebd 8fac b3bd
00000080: 1d08 d6bc 834d 3b3d a1ef 3e3e b556 9e3d
00000090: d673 0b3d 4a10 b1bd 92b5 373d 3c22 eabe
000000a0: 117d 593e 6352 c9be db90 bf3d 3379 763c
000000b0: cdf9 7dbd b85a 453e 51de 50be df18 a0be
000000c0: 2f7f 0ebe 9b3d ed3d 3fc0 e73c 5ad5 693d
000000d0: 1449 6d3e 2137 d13c 91a5 87bd f1a1 023d
000000e0: 3637 9b3e 5ec7 35bd ba22 383e 85c6 9a3e
000000f0: af74 39bd 82d6 563e 3d5b aebc 6dc7 0c3e
00000100: 6e41 f2bd c014 403d a034 46be 4611 233e
00000110: 6ef2 d0bd 6bcf 423a 6c67 b13e cc9d 8dbd
00000120: 44f9 ad3c 62a4 53be 43c4 ad3b c915 88bd
00000130: fae8 483d e614 5abe 9578 403e 9ae3 563d
00000140: af43 6bbe cdcd e9bd 2a13 003e 057c 133e
00000150: 9432 42be 7d59 533e 2881 c63d 714c cfbd
00000160: d2c6 96bd b6ed a6bd d46f 973d 5250 cb3d
00000170: fff0 ec3c 9247 7cbd aafb 42be 5af0 94bd
00000180: b05a 31be 7541 ca3d 3d4e 043e bd4c 60bd
00000190: 218e c8be d335 53bd 2913 0e3e abdf df3d
000001a0: aedc cc3d 9b5c b3bd 31d3 09be 120e 0cbe
000001b0: 6b65 303e ba53 f0bd 67ca 7a3d 7f29 2dbd
000001c0: 75e2 d63c 76a1 4dbc d6e6 3abe 6335 003e
000001d0: a1b7 b0bc 322c 9ebd 169c 2c3e a9f7 673e
000001e0: b7e0 233e 9ffe 0d3e 9137 ffbd 08f0 143e
000001f0: 8438 44bd 2f93 55be 6369 99bd 6f01 8bbd
00000200: 7f2f 953d 7fac 28be 846b 8fbe d324 c0bc
00000210: 1d2f 48be f6bf 3bbe fab5 5ebd e8fc 343e
00000220: 1efd 3abe 11cc 81bd e491 86be 3607 99be
00000230: 232f 9cbd 2872 81be edc4 3b3d c03d ec3d
00000240: dca9 24be e412 b5bd d538 2fbe 52bc 41be
00000250: 6404 483e ee3d d5be 5429 763e a70a 6c3c
00000260: 2f7c 15bc 9084 353b a977 683e 06d6 973e
00000270: 8c86 ebbd 8c34 62bd 2b6f 8e3e 287f 95bc
00000280: ce15 a23b 90b2 c6bc 3761 69be f9fc da3d
00000290: 5fe8 c83c b4da 183d 4d31 4dbd 9dc9 2c3e
000002a0: c8a5 7e3c 7aae 33be 8a86 52bd a28b d03c
000002b0: 0771 4d3d 755c 573e cf42 143e 8033 083e
000002c0: 05c2 88be a2a9 923e eb38 393e b4ed 48bd
000002d0: e99b a23d bd21 003e 68ec 3cbe 6a30 10bd
000002e0: 92e9 5ebc 10a0 f2bd 4509 5ebe 9f59 5e3d
000002f0: 98cd 95be 0964 66bd acc4 8fbd a4c4 263d
00000300: c155 b43e b8b2 f73b dcd4 263e 18bd 16be
00000310: 1f40 743d 4e82 a7bd d3e2 253e 5f14 91bd
00000320: 2af9 c0bc 243f cebd 4c0e 27bd d0b0 af3d
00000330: eb4a 09bc 86fe eb3c 0112 1abe 0d92 273e
00000340: 2665 5ebe d8ea 2ebe 0140 783c 28a8 01bc
00000350: 424c 603d 969b 413e d0ca 1c3c 0b79 89be
00000360: d1b0 bebc 560d 65bd 568d 563c e3eb d73e
00000370: df05 d5bd 8694 5c3d c446 f83d d64e b53d
00000380: 8797 0fbe 7707 073e 2280 1abe f3af c5bd
00000390: 5a94 a23d 297d e6bc 9b40 20be 0351 c73c
000003a0: a734 253e 62d5 113d 82da 973d aee8 f73d
000003b0: 9f7b 15be 97c0 b6bc e7b7 993e 91ca e33d
000003c0: ff62 0a3d 3455 593e 4cbb 75bd 1a0a a63e
000003d0: 216c c0bd bbc3 3fbe 6ed1 333e ccf0 85bd
000003e0: eba2 0cbe 4fdd e5bd 8046 98be 0af3 b33d
000003f0: 0da2 1ebd f516 2cbe d5a8 5d3e 015b 5e3c
-0.023356162 -0.0624348 0.045569483 0.0048920074 0.04352333 -0.11540164 0.284383 0.061871313
0.25726402 0.31820154 -0.101425424 -0.09192835 0.03827748 -0.010312504 0.02620861 0.013875358
0.032104727 0.10325457 -0.12878652 -0.037064377 0.027107403 0.28379357 -0.27212688 0.10919945
-0.024657441 -0.23465183 0.28403354 0.06260201 0.031636063 0.15929039 -0.077285215 -0.08773147
-0.026126916 0.045728218 0.18646099 0.07731382 0.034046017 -0.08645685 0.044850893 -0.45729244
0.21239115 -0.3932067 0.09353801 0.015043545 -0.062005807 0.19272888 -0.20397307 -0.31268975
-0.13915704 0.11584016 0.028289912 0.057088234 0.23172408 0.025538983 -0.06623376 0.03189272
0.3031556 -0.044379584 0.17981997 0.30229583 -0.045277294 0.20980266 -0.02128374 0.1374795
-0.11828886 0.04689479 -0.19356012 0.15924558 -0.1020249 0.00074314204 0.34649217 -0.06914863
0.021237023 -0.20668176 0.0053029372 -0.0664478 0.04905031 -0.21297035 0.18795998 0.05246315
-0.22975038 -0.114162065 0.1250731 0.14402778 -0.18964607 0.20639606 0.09692603 -0.10122002
-0.07362141 -0.081508085 0.073943764 0.09927429 0.02892351 -0.061591692 -0.19041315 -0.07272406
-0.17319751 0.09875766 0.1292047 -0.054760683 -0.39170936 -0.051565003 0.13874497 0.10931333
0.10003029 -0.087578975 -0.1345947 -0.13677242 0.17226188 -0.117347196 0.061228182 -0.042275902
0.02623103 -0.012550702 -0.1825212 0.12520365 -0.021571936 -0.07723273 0.16856417 0.22653069
0.1600369 0.13866661 -0.1246177 0.1454469 -0.04790546 -0.20856927 -0.07490804 -0.06787383
0.0728445 -0.16472052 -0.28011715 -0.02345506 -0.19549222 -0.18334946 -0.054372765 0.17674601
-0.18260619 -0.06337751 -0.2628318 -0.29888314 -0.07626178 -0.25282407 0.0458421 0.115352154
-0.16080421 -0.08841494 -0.17111523 -0.18919495 0.19532925 -0.4164881 0.24039203 0.014406837
-0.009123846 0.0027697422 0.22701897 0.29655474 -0.11500272 -0.055225894 0.2781919 -0.01824911
0.004946447 -0.024255067 -0.22790991 0.10692782 0.024524866 0.037317947 -0.050095845 0.16873784
0.015542455 -0.17547026 -0.051397838 0.025457207 0.05015662 0.21031363 0.1447861 0.13300896
-0.26710525 0.28645045 0.18088119 -0.049054816 0.07939894 0.1251287 -0.18449557 -0.03520242
-0.013605492 -0.11846936 -0.21683224 0.054284688 -0.29258418 -0.056247745 -0.07019934 0.040714875
0.35221675 0.0075591467 0.16292137 -0.14720571 0.059631463 -0.081791505 0.16199808 -0.070839636
-0.02355631 -0.10070637 -0.04078512 0.08578646 -0.008379678 0.02880789 -0.1504593 0.16364308
-0.21718273 -0.17081773 0.0151519785 -0.007913627 0.054760225 0.18907008 0.009569839 -0.2685016
-0.023277672 -0.05592092 0.013095221 0.42172155 -0.104015104 0.05385258 0.121228725 0.088529274
-0.14022647 0.13186441 -0.15087941 -0.096527 0.07938452 -0.028135853 -0.15649645 0.024330622
0.16133367 0.03560389 0.07414724 0.12104927 -0.14597939 -0.02230863 0.3002312 0.11122621
0.033785816 0.21223909 -0.059993073 0.32429582 -0.09395624 -0.18727009 0.1756036 -0.06540069
-0.13734023 -0.11223852 -0.29741287 0.087865904 -0.038728762 -0.16805632 0.21646436 0.013571502

fc3.bias f4 [10]
00000000: 8355 633d 7729 55bf 2acc 5abc f880 153f
00000010: 7fdf 0a3f 868d 343d c287 49bd a3d5 95be
00000020: 035d a4bc 5457 8abd
0.055501472 -0.83266395 -0.013354341 0.58399916 0.5424728 0.04408028 -0.049201734 -0.29264554
-0.020063883 -0.06754938
